outputs/decentes/ctbr.pt (torch, 22449 bytes, 6 tensors)

net.0.weight f4 [64, 9]
0.23666574 -0.27630696 -0.041516934 0.3079358 -0.12412974 0.28248402 1.0671121 0.35066313
0.27965283 0.1908553 -0.05852798 -0.03492804 0.12656225 0.06764715 0.26237676 0.84321773
0.5720918 -0.027720613 -0.25643995 -0.027531555 0.17674159 0.097289905 0.22762376 0.12115539
0.4001747 0.46665865 0.004375648 -0.04210717 -0.1598239 0.08006801 0.026733436 0.35860336
0.47419867 0.96526074 -0.17721216 -0.5025076 0.02896648 0.16186777 -0.08798165 0.21910298
0.17435162 0.0025520583 0.26198336 0.22124109 -0.015815396 0.25081915 0.10003459 0.4428658
0.09826586 0.34998545 0.23395331 -0.9150229 0.7815056 -0.12754557 0.028594512 0.16123623
-0.15294307 -0.07006305 0.0057510743 -0.017183533 0.39446667 -0.28873888 0.2555964 0.056565646
0.26972196 -0.24646412 0.13789493 0.19357976 0.32918465 0.26556912 -0.028549591 0.3071505
-0.14599872 0.1378369 0.45710394 0.08045914 -0.056332644 0.19058868 0.34465298 0.85180247
0.20458078 0.20700605 -0.10055318 -0.34385926 0.28809866 -0.11966691 0.036825553 -0.89590603
0.7008987 0.48377353 -0.1442005 0.2242289 0.060339227 -0.07537385 -0.034876067 0.14172462
0.21302646 0.074716285 -0.2988681 -0.30348244 0.22397462 -0.14495653 -0.17892988 -0.103352465
-0.31638956 0.26693517 -0.0028826063 -0.10640392 -0.1988753 -0.22381723 0.30483854 -0.7409129
-0.041885763 0.090193205 0.061489254 0.8970404 0.28592882 -0.06254692 0.028929617 0.00799647
-0.008229954 -0.60526085 -0.36342707 -0.156028 0.81671804 -0.101260334 -0.0044278195 0.28203547
-0.30531043 -0.20492803 0.045378484 0.072731696 -0.2266042 -0.18300052 -0.10928151 0.018909706
-0.066895925 -0.3124846 0.11978126 0.08168511 -0.1736683 -0.64362556 0.78120744 0.2907779
0.03429106 0.23028876 -0.025232416 0.06201809 0.1904347 -0.27170834 -0.13336262 0.3404843
0.018773416 0.2518333 -0.15131365 -0.03502115 0.1309679 -0.46066123 0.28838032 0.61895996
0.12684634 0.16766867 -0.14923209 0.076680295 -0.29537296 0.079264075 -0.070733 0.08631425
0.3280337 -0.12661535 0.1940349 0.25984174 -0.2054702 0.42890194 0.033229895 0.19264767
-0.12749268 1.0237919 0.9373875 -0.25978214 0.28382483 -0.06266067 -0.22826542 0.15951426
-0.11178331 -0.061270043 -0.29947063 0.36246514 0.3248738 -0.24803026 0.087652594 0.32229844
0.035509173 0.09319653 0.32995 -0.69670194 0.74338835 -0.053256582 -0.38682547 -0.1808074
-0.21062379 0.38746452 -0.081603505 -0.023715822 0.72004694 0.4421736 0.053191468 0.33588612
0.26177076 -0.11206501 -0.00450455 0.004120675 0.25917563 -0.15086295 -0.19729623 0.19278939
0.059699114 0.032475498 0.11230502 -0.021286858 0.08550996 -0.23521514 -0.16167785 -0.25309402
0.30773574 -0.19054358 0.15304258 -0.20704725 0.0077359397 -0.11327652 0.012014104 -0.38144994
0.30132353 -0.0067615127 0.2838696 0.23186946 -0.10865757 -0.14411044 0.052890576 0.30266407
0.15571734 -0.15824409 -0.2394765 -0.19190715 0.1924651 -0.05101931 -0.31793776 -0.08569413
-0.11668077 -0.018941771 0.38154042 -0.093141444 -0.03023173 0.14318986 0.26890248 0.28632057
00000000: 8158 723e 1b78 8dbe a90d 2abd c3a9 9d3e
00000010: bc37 febd bfa1 903e 2197 883f 1e8a b33e
00000020: a82e 8f3e 926f 433e 09bb 6fbd b410 0fbd
00000030: 8999 013e 978a 8a3d 3f56 863e 1edd 573f
00000040: 9c74 123f 5716 e3bc 194c 83be db89 e1bc
00000050: bffb 343e ee3f c73d 3416 693e 5120 f83d
00000060: b3e3 cc3e e2ed ee3e 9961 8f3b 9178 2cbd
00000070: e0a8 23be b2fa a33d 1400 db3c dc9a b73e
00000080: 2bca f23e 541b 773f 1b77 35be 57a4 00bf
00000090: 1d4b ed3c aac0 253e b92f b4bd 885c 603e
000000a0: 3b89 323e 6f40 273b af22 863e 068d 623e
000000b0: 4a8f 81bc 5e6b 803e efde cc3d 4ebf e23e
000000c0: 9c3f c93d 4b31 b33e 7591 6f3e f13e 6abf
000000d0: c010 483f 4e9b 02be 0a3f ea3c 1c1b 253e
000000e0: 1c9d 1cbe 377d 8fbd 8273 bc3b 7bc4 8cbc
000000f0: 89f7 c93e 95d5 93be 88dd 823e 61b1 673d
00000100: ff18 8a3e 1761 7cbe 5434 0d3e c639 463e
00000110: e48a a83e adf8 873e d5e0 e9bc d542 9d3e
00000120: b080 15be 1e25 0d3e 8709 ea3e c3c7 a43d
00000130: 0fbd 66bd ae29 433e 5b76 b03e ba0f 5a3f
00000140: a07d 513e 65f9 533e d3ee cdbd 520e b0be
00000150: ab81 933e ed13 f5bd 64d6 163d 195a 65bf
00000160: 196e 333f 2ab1 f73e 4ca9 13be 439c 653e
00000170: 4426 773d 9b5d 9abd 35da 0ebd 4220 113e
00000180: 9c23 5a3e da04 993d 3d05 99be 0d62 9bbe
00000190: 9a59 653e 7c6f 14be 6539 37be 75aa d3bd
000001a0: d0fd a1be baab 883e 1cea 3cbb 4cea d9bd
000001b0: f7a5 4bbe 5830 65be cc13 9c3e 78ac 3dbf
000001c0: 6890 2bbd 37b7 b83d 28dc 7b3d 71a4 653f
000001d0: 4365 923e 9918 80bd cefd ec3c a003 033c
000001e0: eed6 06bc 60f2 1abf 1d13 babe cec5 1fbe
000001f0: 6f14 513f 9461 cfbd 3e17 91bb f466 903e
00000200: a651 9cbe a7d8 51be cade 393d 5bf4 943d
00000210: ee0a 68be 7d64 3bbe fcce dfbd 87e8 9a3c
00000220: bb00 89bd fbfd 9fbe e14f f53d 864a a73d
00000230: 1ad6 31be a5c4 24bf 36fd 473f d7e0 943e
00000240: c874 0c3d d1d0 6b3e 36b4 cebc ae06 7e3d
00000250: 5001 433e 5b1d 8bbe 3690 08be f553 ae3e
00000260: b5ca 993c 4bf0 803e f7f1 1abe 5672 0fbd
00000270: 731c 063e cadb ebbe 96a6 933e 2974 1e3f
00000280: 02e4 013e 56b1 2b3e 4cd0 18be 8f0a 9d3d
00000290: 203b 97be 3455 a23d 77dc 90bd 87c5 b03d
000002a0: 08f4 a73e 74a7 01be 16b1 463e fa09 853e
000002b0: c866 52be 0999 db3e 121c 083d 6e45 453e
000002c0: 718d 02be 9d0b 833f a1f8 6f3f 2a02 85be
000002d0: 7d51 913e 3d54 80bd 69be 69be b557 233e
000002e0: a6ee e4bd 4cf6 7abd 3754 99be 0895 b93e
000002f0: dc55 a63e a5fb 7dbe 3483 b33d 4d04 a53e
00000300: 1172 113d d3dd be3d 35ef a83e 0f5b 32bf
00000310: b34e 3e3f 9323 5abd fd0d c6be 9325 39be
00000320: c3ad 57be c061 c63e bd1f a7bd af47 c2bc
00000330: ff54 383f 9464 e23e 4cdf 593d 44f9 ab3e
00000340: d106 863e 5782 e5bd e79a 93bb ba06 873b
00000350: abb2 843e d17b 1abe 0608 4abe 956a 453e
00000360: 0f87 743d 0705 053d 2d00 e63d c761 aebc
00000370: d91f af3d 3ddc 70be e18e 25be 8a95 81be
00000380: 8a8f 9d3e db1d 43be 32b7 1c3e 3204 54be
00000390: c47d fd3b 85fd e7bd ced6 443c 684d c3be
000003a0: 1447 9a3e ae8f ddbb 5b57 913e 306f 6d3e
000003b0: dc87 debd b091 13be caa3 583d c9f6 9a3e
000003c0: 5e74 1f3e bd0a 22be 5439 75be 4f83 44be
000003d0: 9215 453e a0f9 50bd bdc8 a2be 6780 afbd
000003e0: 54f6 eebd c62b 9bbc 4459 c33e f1c0 bebd
000003f0: 88a8 f7bc 5da0 123e 96ad 893e 9c98 923e

net.0.bias f4 [64]
-0.10817597 0.20564476 0.64382756 0.10700793 0.39380735 0.97978383 0.17892295 0.05522198
0.76972765 0.3290906 -0.24644214 0.30612272 0.27190933 0.28134358 0.06335153 0.41036537
-0.32828632 0.1875539 0.3419052 0.6197067 -0.11026558 0.7113353 0.5653097 0.24313222
-0.03953057 0.35172153 0.13796976 0.2658856 0.05038907 0.38114944 0.123588376 0.17758943
0.489688 0.21856429 0.06305643 -0.0877986 0.3024091 0.05184414 -0.15065418 0.4991814
0.046724983 0.12507743 -0.11187702 0.8059518 0.33840182 0.1724917 0.07949932 -0.100172125
0.016196975 0.2738656 -0.07088776 0.33661878 0.1919407 0.09429799 0.21425669 0.30274844
0.13960628 0.12907755 -0.0613141 -0.09508096 0.4022806 -0.22167306 0.33331335 -0.15197875
00000000: 5d8b ddbd 8a94 523e e2d1 243f f926 db3d
00000010: 1ea1 c93e 1dd3 7a3f 9437 373e 7130 623d
00000020: df0c 453f 907e a83e 545b 7cbe 1ebc 9c3e
00000030: b337 8b3e 440c 903e 72be 813d 691b d23e
00000040: 2515 a8be 210e 403e 330e af3e 19a5 1e3f
00000050: ecd2 e1bd 121a 363f 23b8 103f a7f7 783e
00000060: cfea 21bd d814 b43e f247 0d3e 2822 883e
00000070: c564 4e3d 0526 c33e e71b fd3d 01da 353e
00000080: 63b8 fa3e 51cf 5f3e bb23 813d c1cf b3bd
00000090: 5ed5 9a3e 855a 543d 1745 1abe b494 ff3e
000000a0: b262 3f3d 4c14 003e c71f e5bd db52 4e3f
000000b0: 0143 ad3e aaa1 303e 8ad0 a23d 0b27 cdbd
000000c0: 85af 843c 1d38 8c3e 9a2d 91bd 4c59 ac3e
000000d0: 1a8c 443e 4e1f c13d 1b66 5b3e d801 9b3e
000000e0: f3f4 0e3e e82c 043e 7e24 7bbd ceb9 c2bd
000000f0: b9f7 cd3e 43fe 62be 0ca8 aa3e 51a0 1bbe

net.2.weight f4 [64, 64]
0.060139727 -0.06722435 0.008610944 -0.14223136 -0.106096275 0.093182646 0.04831335 -0.028949844
0.09523618 0.18468131 0.063993424 0.08557303 0.0762117 0.23083499 0.03727485 0.20691359
-0.116104536 -0.005605579 -0.11722603 -0.06130379 -0.019571608 0.15049575 -0.01216236 0.02589258
0.023793621 0.1240649 -0.0071319686 0.0154450685 0.0050082398 0.13131195 0.060640723 0.044151247
0.20384213 0.16197538 -0.044727415 -0.10365767 0.023061875 0.077879205 -0.07645209 0.040799044
0.28971928 0.009812078 0.091432415 0.11992843 0.043597437 -0.091030836 0.05470325 0.108441845
0.046259746 0.043068416 -0.050839093 0.17190638 0.051035907 0.06499831 0.074067906 0.103255734
0.012774225 -0.00085961726 -0.025778385 0.002475269 -0.044863433 -0.10627794 -0.014602283 0.021002391
0.20442046 0.18554197 0.07746309 0.079796776 -0.22414158 -0.10738921 -0.37911493 -0.05043107
0.20600535 0.11644414 0.08497543 0.08617457 0.9923389 0.35825613 0.005490153 -0.106182426
0.1783784 0.37905714 -0.57934207 0.2049984 0.4806873 0.14818224 -0.4260255 -0.071983404
-0.022660786 -0.30113968 0.2105821 0.31524786 -0.38682005 -0.23317362 0.21522346 -0.52132815
0.07513135 0.12047821 -0.13456644 -0.10909694 -0.45198825 0.11788262 0.27329195 0.2970008
-0.05407781 0.09579173 -0.13368794 0.098526515 -0.31454378 -0.2672214 0.17456833 0.23945695
-0.16833942 -0.32592678 -0.19444743 0.32814908 -0.0069423057 -0.343292 0.042221576 -0.050338384
0.08439943 -0.11947943 0.51047313 -0.38914448 -0.33074924 -0.17650338 -0.021878537 0.09394789
0.0038081727 0.21726277 0.13470909 0.11419275 -0.10137731 0.07316914 0.08812966 0.095732786
-0.019679045 -0.25314027 0.12163965 -0.003779899 0.016536327 0.043708727 0.038863566 -0.22771306
-0.07045067 0.1949649 -0.013516282 0.23729324 -0.019728864 0.035098914 0.005549017 0.087659836
0.0367491 0.07900279 0.09693002 0.08337479 0.05624725 -0.023052873 -0.11488226 0.11766593
0.0449337 -0.0023829353 -0.042305395 0.036187176 0.09618362 -0.11714238 0.09959026 0.020205675
-0.0047455393 0.0022142986 0.004928364 -0.028466852 -0.065920144 -0.05817815 0.013183284 -0.08542466
0.086727746 -0.029261857 -0.029060379 0.07476261 0.10635186 -0.11353234 0.21581559 -0.014629015
0.06502406 0.04112297 0.09710329 -0.07954312 0.23655443 0.088729195 -0.06148738 0.10251519
0.04537138 0.108381435 0.03679216 0.09396202 0.037257507 -0.018855957 0.008355319 -0.05981415
-0.0026086224 -0.103543095 -0.09883579 -0.11263937 0.10527438 -0.002826107 -0.018839693 -0.19345582
-0.03321036 0.11566264 -0.11211156 0.2529953 -0.094469644 -0.026520856 0.12314719 -0.0579238
0.065831095 0.021743689 -0.014424252 -0.02479456 -0.017046405 0.0033681628 -0.13934702 0.028077355
0.008630754 -0.03878498 0.04824742 -0.037188295 0.09496234 -0.017805297 -0.09020386 0.025223687
-0.0921715 0.09397868 -0.05101531 0.21497646 0.05307753 -0.0056676543 0.11211826 -0.06387536
-0.048050214 0.07280985 -0.047219153 0.13590719 -0.068165354 0.06844275 0.12743247 0.07358511
0.07625892 -0.047281906 0.062205605 0.04589148 0.16073258 0.0023873404 -0.051258307 0.036306728
00000000: 1355 763d ecac 89bd eb14 0d3c 19a5 11be
00000010: 0149 d9bd 8bd6 be3d 38e4 453d 3928 edbc
00000020: 300b c33d 191d 3d3e fc0e 833d ea40 af3d
00000030: e114 9c3d 0260 6c3e 83ad 183d 28e1 533e
00000040: 37c8 edbd 01af b7bb 3314 f0bd af19 7bbd
00000050: a354 a0bc 8f1b 1a3e a344 47bc ad1c d43c
00000060: d7ea c23c bd15 fe3d 4ab3 e9bb 500d 7d3c
00000070: 291c a43b a476 063e 6862 783d f0d7 343d
00000080: febb 503e e0dc 253e 1834 37bd 794a d4bd
00000090: 42ec bc3c 227f 9f3d ea92 9cbd e61c 273d
000000a0: 1656 943e d7c2 203c eb40 bb3d 099d f53d
000000b0: 3a93 323d 606e babd 8410 603d c216 de3d
000000c0: dc7a 3d3d 8268 303d a73c 50bd 3a08 303e
000000d0: 070b 513d d51d 853d eab0 973d be77 d33d
000000e0: fc4a 513c f057 61ba 312d d3bc 1f38 223b
000000f0: b8c2 37bd 40a8 d9bd 6a3e 6fbc 350d ac3c
00000100: 9953 513e b7fe 3d3e f8a4 9e3d 7e6c a33d
00000110: 5f85 65be e0ee dbbd 5a1b c2be cf90 4ebd
00000120: 11f3 523e 447a ee3d 9907 ae3d 4b7c b03d
00000130: ec09 7e3f 596d b73e bee6 b33b 2c76 d9bd
00000140: d4a8 363e c713 c23e c34f 14bf 1aeb 513e
00000150: a51c f63e 16bd 173e 0420 dabe 096c 93bd
00000160: 1da3 b9bc fb2e 9abe d6a2 573e 2b68 a13e
00000170: 470d c6be 11c5 6ebe 8a63 5c3e c375 05bf
00000180: 77de 993d 48bd f63d c9cb 09be 376e dfbd
00000190: 016b e7be 716c f13d ecec 8b3e 7d10 983e
000001a0: b280 5dbd 742e c43d 7ee5 08be 45c8 c93d
000001b0: e20b a1be 3ed1 88be 0ac2 323e 3434 753e
000001c0: 2b61 2cbe e0df a6be 3a1d 47be 2803 a83e
000001d0: 487c e3bb f8c3 afbe 88f0 2c3d 9f2f 4ebd
000001e0: 9cd9 ac3d a2b1 f4bd 5eae 023f f23d c7be
000001f0: f757 a9be 4dbd 34be 9e3a b3bc c067 c03d
00000200: 8992 793b 227a 5e3e 2ef1 093e e3dd e93d
00000210: e89e cfbd b4d9 953d 537d b43d 8d0f c43d
00000220: f335 a1bc 9a9b 81be 351e f93d 2fb8 77bb
00000230: 3177 873c ec07 333d 672f 1f3d 9d2d 69be
00000240: 7148 90bd e1a4 473e 6573 5dbc 00fd 723e
00000250: 6d9e a1bc e1c3 0f3d 87d4 b53b 0087 b33d
00000260: 3986 163d 37cc a13d 3f83 c63d 67c0 aa3d
00000270: 8463 663d 61d9 bcbc 6447 ebbd d6fa f03d
00000280: 660c 383d 052b 1cbb 6c48 2dbd 0139 143d
00000290: ebfb c43d 58e8 efbd faf5 cb3d 5f86 a53c
000002a0: 7880 9bbb c41d 113b 1d7e a13b 5133 e9bc
000002b0: 2401 87bd 364c 6ebd b3fe 573c 20f3 aebd
000002c0: 519e b13d 90b6 efbc 0810 eebc 241d 993d
000002d0: 01cf d93d a583 e8bd c3fe 5c3e 89ae 6fbc
000002e0: 562b 853d 8f70 283d 17de c63d 81e7 a2bd
000002f0: 533b 723e a7b7 b53d 31da 7bbd 7cf3 d13d
00000300: 57d7 393d 16f7 dd3d 60b3 163d 296f c03d
00000310: 549b 183d cf77 9abc bfe4 083c afff 74bd
00000320: 6cf5 2abb 670e d4bd 6b6a cabd 78af e6bd
00000330: 189a d73d 3536 39bb b355 9abc 4819 46be
00000340: 9607 08bd 89e0 ec3d bf9a e5bd 9a88 813e
00000350: 4d79 c1bd 4442 d9bc 9834 fc3d 8241 6dbd
00000360: 74d2 863d d21f b23c b353 6cbc f61d cbbc
00000370: e7a4 8bbc 65bc 5c3b fcb0 0ebe 7b02 e63c
00000380: 0268 0d3c 00dd 1ebd 169f 453d c152 18bd
00000390: 9e7b c23d 6adc 91bc cdbc b8bd e8a1 ce3c
000003a0: 69c4 bcbd e577 c03d 6ef5 50bd ca22 5c3e
000003b0: d367 593d bbb7 b9bb 429e e53d 16d1 82bd
000003c0: 4dd0 44bd 551d 953d df68 41bd 412b 0b3e
000003d0: 479a 8bbd b62b 8c3d a87d 023e cab3 963d
000003e0: a32d 9c3d acaa 41bd 4ecb 7e3d b4f8 3b3d
000003f0: 1597 243e ed74 1c3b 3bf4 51bd 5db6 143d

net.2.bias f4 [64]
0.08069682 -0.08516012 -0.103046514 0.051254243 -0.08211 -0.06042967 -0.0583918 0.020082247
-0.10707471 0.02453961 0.10477822 -0.10569982 0.10996128 -0.08571248 -0.045886554 -0.104669355
0.10055481 -0.021262633 0.10823431 -0.0145017775 0.049566716 -0.05890582 0.011484777 0.2296216
-0.044326123 0.23424664 0.074516386 0.037281636 -0.07380389 0.10359182 0.20311539 -0.061653227
-0.03574405 -0.006482341 -0.053461544 -0.01584005 -0.08719816 0.05084844 -0.0358347 -0.010510051
-0.055665154 0.034890126 0.013282146 -0.20953512 0.08157433 0.04150305 -0.11984645 -0.007598025
0.0273083 0.0016111037 -0.18721336 0.06518023 0.08944765 0.0026966173 0.3629045 -0.032223724
0.05238066 -0.071946435 0.10497045 -0.045464877 -0.015793357 -0.01745918 -0.11700895 0.08742886
00000000: 6044 a53d 6e68 aebd 0d0a d3bd f8ef 513d
00000010: 4a29 a8bd 1a85 77bd 3d2c 6fbd 8683 a43c
00000020: fc49 dbbd 4b07 c93c f795 d63d 2679 d8bd
00000030: 6133 e13d 068a afbd 8af3 3bbd e35c d6bd
00000040: aeef cd3d f92e aebc f3a9 dd3d dd98 6dbc
00000050: 7806 4b3d 3b47 71bd a52a 3c3c ed21 6b3e
00000060: 4f8f 35bd 5ade 6f3e 0c9c 983d a1b4 183d
00000070: 7e26 97bd f327 d43d 7bfd 4f3e 1888 7cbd
00000080: 5a68 12bd d169 d4bb 7efa 5abd fec2 81bc
00000090: f394 b2bd 7446 503d 68c7 12bd 5932 2cbc
000000a0: 2501 64bd f3e8 0e3d 5c9d 593c 6090 56be
000000b0: 7110 a73d 1aff 293d 0e72 f5bd daf8 f8bb
000000c0: a8b5 df3c ab2b d33a dcb4 3fbe 367d 853d
000000d0: 5430 b73d bbb9 303b 9ece b93e 06fd 03bd
000000e0: 1a8d 563d a758 93bd bffa d63d 6139 3abd
000000f0: 1261 81bc 8e06 8fbc 63a2 efbd e70d b33d

net.4.weight f4 [2, 64]
0.030994473 -0.9537559 0.022409381 -0.0065518077 0.09873542 0.055516962 0.043594103 -0.048165005
-0.07045419 0.2082831 0.028033564 0.08754873 0.01936411 0.028006924 0.087908976 -0.04528646
-0.09132992 -0.021839451 0.04487087 -0.11854481 -0.01448362 0.0556152 0.0438379 0.21768254
0.058248702 0.35914436 0.0983081 0.13174178 0.13092797 0.12108459 0.15999882 -0.064318635
-0.32518026 0.12840043 -0.16518398 0.14181994 0.07596069 0.048799172 0.060684755 -0.12337019
0.034715205 0.05688019 -0.034008116 -0.4117401 0.10428531 0.06023098 -0.100157596 0.09970542
-0.047336772 0.18700406 -0.4941838 -0.13842314 0.054324854 -0.28251386 0.3669388 0.10125934
0.0930701 -0.06106777 0.08228915 0.082133874 -0.04445621 0.03189555 -0.10143208 0.10175723
0.083333634 -0.2229612 -0.060028788 -0.061779782 -0.017613703 0.4694761 0.0752984 0.01846127
0.061251294 0.0013153935 0.065718114 -0.09584787 0.06492649 0.02956395 -0.08931631 0.032955445
-0.06994526 0.1404197 -0.013586783 -0.16370678 0.054367986 0.09392035 -0.050564468 -0.120852545
-0.13427383 0.14680655 -0.09089648 -0.06670957 -0.06612631 -0.0046873214 -0.27468535 -0.19806664
-0.12149366 0.02849963 -0.13493232 0.016086634 0.038941093 -0.102739185 0.055535015 -0.12261851
0.00937913 0.030371532 -0.106906384 0.3381919 -0.24775699 -0.327404 -0.065195434 0.033899292
-0.1407879 -0.0012865688 -0.06406395 -0.08585101 0.10335059 -0.1265144 0.021009753 -0.11714433
0.15236893 0.13905057 0.10983016 -0.05475403 0.07492207 0.011701641 0.04961493 -0.06339144
00000000: 1fe8 fd3c 5929 74bf e193 b73c 8cb0 d6bb
00000010: cc35 ca3d c165 633d bb8f 323d ab48 45bd
00000020: 494a 90bd 2a48 553e a5a6 e53c c04c b33d
00000030: 7ba1 9e3c c76e e53c 9f09 b43d 4c7e 39bd
00000040: 2e0b bbbd a6e8 b2bc 84ca 373d 9fc7 f2bd
00000050: b54c 6dbc c4cc 633d 5f8f 333d 2ce8 5e3e
00000060: 3196 6e3d c5e1 b73e c255 c93d 51e7 063e
00000070: fb11 063e 33fb f73d bbd6 233e 7db9 83bd
00000080: 077e a6be 677b 033e fd25 29be 3f39 113e
00000090: 4791 9b3d a4e1 473d 9490 783d 83a9 fcbd
000000a0: 8831 0e3d 34fb 683d 184c 0bbd 99cf d2be
000000b0: 8993 d53d c3b4 763d 6d1f cdbd 5b32 cc3d
000000c0: 34e4 41bd fe7d 3f3e a905 fdbe ccbe 0dbe
000000d0: bd83 5e3d a8a5 90be 67df bb3e 0f61 cf3d
000000e0: 899b be3d 3322 7abd 3787 a83d ce35 a83d
000000f0: b717 36bd e9a4 023d 9fbb cfbd 1866 d03d
00000100: d3aa aa3d f14f 64be bfe0 75bd cc0c 7dbd
00000110: 9d4a 90bc 2c5f f03e 0c36 9a3d 173c 973c
00000120: a3e2 7a3d 4869 ac3a 3897 863d e34b c4bd
00000130: 2ef8 843d 1930 f23c 78eb b6bd 4afc 063d
00000140: 763f 8fbd 2fca 0f3e 199b 5ebc c0a2 27be
00000150: f7b0 5e3d 5059 c03d b01c 4fbd 8a81 f7bd
00000160: 147f 09be 7554 163e ef27 babd 079f 88bd
00000170: 3b6d 87bd 1a98 99bb 8fa3 8cbe fbd1 4abe
00000180: abd1 f8bd 0e78 e93c b32b 0abe 1ec8 833c
00000190: b280 1f3d ec68 d2bd af78 633d 6a1f fbbd
000001a0: ecaa 193c b8cd f83c bcf1 dabd 7d27 ad3e
000001b0: 02b4 7dbe 7fa1 a7be 2f85 85bd fcd9 0a3d
000001c0: b42a 10be 16a2 a8ba f633 83bd a8d2 afbd
000001d0: 79a9 d33d fe8c 01be a51c ac3c 5ee9 efbd
000001e0: 9a06 1c3e 4663 0e3e a3ee e03d c345 60bd
000001f0: be70 993d 3db8 3f3c 0639 4b3d 5fd3 81bd

net.4.bias f4 [2]
0.038365323 -0.056114953
00000000: f524 1d3d cbd8 65bd
