outputs/ctbr.pt (torch, 22449 bytes, 6 tensors)

net.0.weight f4 [64, 9]
00000000: e2d6 9ebe 1166 58be ade5 1b3e efea b23e
00000010: aa0c a53e d643 64be 234f e23e b52d 1abc
00000020: d7a0 c9be a6ac 123e 88c1 593e 0870 d13d
00000030: c869 783e 38c6 32be 90bc e63d 3914 d4be
00000040: 32c9 6abd e0ab 9c3e 942d 013e 4e74 9c3e
00000050: 6c64 433e 8b07 1bbe 82d0 593d 91fb 953e
00000060: d126 e33e 1ac2 933e 14df a63e e223 e63d
00000070: 0583 0b3c 9045 d2bb 207e d53d 4689 463d
00000080: 3177 313e 5451 013f 294f bbbc 4c92 4cbe
00000090: 006f a93d f3a3 aa3e 32a1 e8bd 1fd4 ae3d
000000a0: 5ea4 0f3d 8c3b 593e f527 603d 45df cf3e
000000b0: 76e5 553e d774 63be 3ed2 333d 0674 8e3e
000000c0: c3a4 253e 16bb 8fbd 2f96 453d fa97 553e
000000d0: abcc 7f3e 37a8 f63d 9b74 d9be 4380 3abe
000000e0: 66f6 ab3e fd81 ab3e 7661 04be 4e93 9cbe
000000f0: b2ba 303f dccf 36be 7f49 bc3d b797 753e
00000100: ec1d 7a3e db04 993e 8851 1b3e 33b8 d53d
00000110: d907 75be 829e a8be 214d d0be 648f 3f3e
00000120: e29b a33e 8aa0 15bd 59cb 3b3e 2a69 6d3e
00000130: cf3f b23e 0f97 0ebe 2430 9ebe f6cb ac3d
00000140: 4274 8dbd 45c9 173e eb7c 633c 7d98 083e
00000150: 03b0 02bd 8672 5a38 35ec f03e 91e5 53bf
00000160: b79f 063f e9a6 a5be b66b 133e 358e dbbd
00000170: bb3a c83e 165c 983d 1c2b 003e 714b ff3d
00000180: aada 2b3f 14d2 0c3f bc06 9dbe 007d 98be
00000190: 16a9 a9be 7644 31be fd24 07be ee20 c8bd
000001a0: 5804 6dbe fbf1 e5be 0319 413e 93fe 963e
000001b0: fe3d d4bd 2e2f 583e b9b1 67be d2b0 2abe
000001c0: d74a 1cbe a51e f83d e522 25be 687b 483f
000001d0: 430c 75be 42fe 89be c67c 96bd 4fcc 9cbe
000001e0: ad55 893e f8fb 98be 7e8d 363e 9f1f 053f
000001f0: dcee 8e3e 4a97 6abe 239b 373e 17ee 1b3e
00000200: 5864 c03e 4984 6cbe bbf0 e0be 82c9 f0bd
00000210: 92d5 853e 9047 303c 2daf e1bd 7fa2 d2bd
00000220: 1630 f53d 5207 fd3c 9f2b b43e 2049 c9bd
00000230: 2402 1e3e 66ce 9ebe 62ba 203f 8583 febd
00000240: 8b25 9e3d cb7a b0be d9ac ff3d d953 4cbf
00000250: d50f 363d 6187 263e 386d 293f e722 143f
00000260: 0110 85be 350e dabe d44f 63bd a219 a93d
00000270: 1787 5d3e a57f d5be 3d04 8e3e 5baf de3e
00000280: e7fc e03e 670c 3c3d 6a12 d2be 49e6 e93d
00000290: bd55 823e c23f e0be 3705 80be 15c0 863e
000002a0: ae6e f7be 250c 503f f281 18be c6cd 8dbe
000002b0: 82ce f93d 5e6b 2bbe d6b0 ac3e 5a03 9a3e
000002c0: ca70 643c 3183 bcbe 1871 a03e fc7a 46be
000002d0: 7fdf 683e 1bb5 793d fe80 9d3e 6ffd 5bbc
000002e0: 69de c8bd ad9d 113e 4f7d 0abe b53a 9f3e
000002f0: f91b 4ebe 5c7b 353d 9b24 cbbd 5068 d8be
00000300: 9627 4c3e b508 47be 0a04 c7bd f9e5 36be
00000310: 881a 3c3f d2c5 46ba fe13 59be ab6a 803e
00000320: f82b 00be 9437 afbe 80b5 01be 9459 b53e
00000330: 2c66 1f3e 6a0f 37be e0ca 73be 47f9 a5bc
00000340: 1dbc eebd b2a6 86be ac9f 613e 1fbc 6abd
00000350: 6f81 6c3e 712a 873c 9f3b 293f a035 1cbe
00000360: c18e 593c b63c 0a3e a741 d43d cc21 19be
00000370: 8fdc 03be 0da6 8cbe 71fa 183f 745c 953d
00000380: 1734 8cbd 50d6 033e 4f35 c83d 4bdb 5a3e
00000390: 7577 22bd f3c6 acbd c260 6d3e 48ae 0f3f
000003a0: f949 2f3e c762 17be 9c7f 323e 432a 84bd
000003b0: a093 963e a3bf 2b3e 2c37 ee3e 97ac 923d
000003c0: 5ca4 66be 6fed c03e 1a8a 21be 8394 a1be
000003d0: c0ef 053e a99b eebd 1b69 583e d5fe 43be
000003e0: e17c e4ba e098 b2be 6649 ee3e d7f5 08bd
000003f0: 5a63 1f3e 35ff d23d 3bf2 503e 215b fcbd
-0.31023318 -0.21132685 0.15224333 0.34944865 0.32236224 -0.22291502 0.44201002 -0.0094103115
-0.39380524 0.14323673 0.21265233 0.102264464 0.24259102 -0.17458427 0.11266434 -0.4142168
-0.05732078 0.3059988 0.12615043 0.30557483 0.19081277 -0.15139596 0.053177364 0.29293492
0.44365552 0.28859025 0.3259207 0.11237313 0.008515124 -0.006416984 0.10424447 0.048470758
0.17330624 0.5051472 -0.022864895 -0.19977683 0.08273125 0.33328208 -0.113588706 0.08536553
0.035068862 0.21214122 0.054725606 0.4060003 0.20888314 -0.2221254 0.043901674 0.27822894
0.16176133 -0.07018106 0.04823893 0.20858756 0.24980418 0.12043803 -0.42471775 -0.1821299
0.33586425 0.3349761 -0.12927803 -0.30581135 0.69034874 -0.1785273 0.09193706 0.23983656
0.24425477 0.29886517 0.1516782 0.10435524 -0.23928775 -0.32933432 -0.40683845 0.18707043
0.31954867 -0.036530055 0.1833929 0.23184648 0.34814307 -0.13924812 -0.30896103 0.0843734
-0.0690694 0.14822872 0.013884763 0.1333942 -0.03190614 5.208191e-05 0.47055212 -0.82772166
0.52587456 -0.32353905 0.14396557 -0.10720483 0.39107308 0.07439439 0.12516445 0.12465561
0.6713053 0.55008054 -0.306692 -0.29782867 -0.33136815 -0.17311272 -0.13197704 -0.09771906
-0.23146188 -0.4491118 0.18857197 0.294911 -0.103633866 0.21111748 -0.2262639 -0.16669014
-0.15262924 0.1211522 -0.16126592 0.78313303 -0.23930459 -0.26951796 -0.073480174 -0.30624625
0.26823178 -0.29879737 0.17827412 0.52001375 0.2791661 -0.22909275 0.17930274 0.15227543
0.37576556 -0.23097338 -0.43933663 -0.117571846 0.26139504 0.010759249 -0.1101974 -0.102849
0.11972062 0.03088728 0.3518953 -0.098284006 0.15430504 -0.31016845 0.627844 -0.12427429
0.077220045 -0.34468684 0.1248414 -0.7981544 0.044448692 0.1626258 0.6618228 0.57865757
-0.25988773 -0.42588964 -0.055496052 0.08256842 0.21633564 -0.41698948 0.2773761 0.4349316
0.4394295 0.045910265 -0.41029674 0.114208765 0.25456038 -0.43798643 -0.2500398 0.26318422
-0.4832663 0.8126853 -0.1489332 -0.27696055 0.12197591 -0.16740176 0.33728665 0.30080682
0.013942907 -0.3681884 0.31336284 -0.19382852 0.22741507 0.06096373 0.30762476 -0.0134271225
-0.09808046 0.14220305 -0.13524364 0.31099477 -0.20127858 0.044307098 -0.09919091 -0.42267084
0.19936976 -0.19436915 -0.09717567 -0.17861165 0.73477983 -0.0007582578 -0.21199033 0.2508138
-0.12516773 -0.3422209 -0.12666893 0.35419905 0.15566319 -0.17876974 -0.2380786 -0.020260466
-0.116569735 -0.26299053 0.22033566 -0.057308313 0.2309625 0.01649973 0.661066 -0.15254831
0.013278664 0.13499722 0.10364085 -0.14954299 -0.12877105 -0.27470437 0.59757143 0.07293025
-0.06845873 0.12874722 0.09775793 0.21372716 -0.039664704 -0.08436384 0.23181441 0.5612531
0.17118062 -0.14783774 0.17431492 -0.06453373 0.29409504 0.16772322 0.46526468 0.07161825
-0.22523636 0.37681147 -0.15775338 -0.31558618 0.13079739 -0.116507836 0.21133845 -0.1914018
-0.0017432236 -0.3488226 0.46540374 -0.033437576 0.15565243 0.10302583 0.20404904 -0.12322069

net.0.bias f4 [64]
00000000: 417d 093f f75c cebd 17e8 6d3e 61ab 02be
00000010: b9a3 1a3d d210 693e 06af 823e 0bd8 213e
00000020: daed a03d f2c1 fd3e 2041 1d3f 50fb d73e
00000030: 405d 183f 3423 f23e 22bb 853c 28b0 d13e
00000040: b74f 493e cbb4 453e b399 893e bf79 1d3d
00000050: 324c 3cbd c816 0b3f 8f14 aa3c 4eab c03d
00000060: 1747 083f b6a4 2b3f 7091 b43e af0b 003f
00000070: 7e8f 813e afff dabd 5db0 153f 3ca3 3bbe
00000080: c58b 04be 8e09 073f ec22 c63e 6e0f bd3e
00000090: 255e 633e b400 953e 2f9b d63c 91f2 cb3e
000000a0: 4728 783d 622a fe3e 2a66 ab3e ee23 903e
000000b0: 82a7 013f 13a3 a73e a6fc 643e a331 ad3e
000000c0: 9b4f c83e 3a47 ebbb 96a9 653e e02f 56be
000000d0: 1cc7 b03e 02a6 b23e 7cf2 11be be59 af3e
000000e0: b639 d63e 10f7 703c 8249 193e 71ef 703e
000000f0: 3ed6 163e 162c 44be ff81 923e 83ac b93c
0.5370675 -0.100763254 0.23233066 -0.12760688 0.037753794 0.22760323 0.25524157 0.1580507
0.078578666 0.4956203 0.614275 0.42183924 0.5951729 0.47292483 0.016324583 0.4095471
0.19659315 0.19307248 0.26875076 0.038446184 -0.045971103 0.54331636 0.020761756 0.09407674
0.53233474 0.67048204 0.3526721 0.5001783 0.25304788 -0.10693299 0.58472234 -0.18323988
-0.12943943 0.52748954 0.38698518 0.36925834 0.22203882 0.291021 0.026197044 0.398335
0.060585286 0.4964171 0.33476382 0.28152412 0.5064622 0.32741603 0.22362003 0.33826932
0.39123234 -0.0071801217 0.22427973 -0.209167 0.34526908 0.3489228 -0.14252657 0.34248155
0.41840905 0.014707342 0.14969447 0.2352884 0.14730164 -0.19157442 0.28614804 0.022665268

net.2.weight f4 [64, 64]
00000000: 98bf 77bd 0fd7 b73d 8e1a 893d 6d35 6abc
00000010: ab63 243c 2300 f6bd b58c 28be 56b5 83bd
00000020: 7cde 873b 6fb1 a3bd 2daf 843c 9f8c 9c3d
00000030: 15b8 e5bd ae71 98bc 2b40 abbd 713a e63d
00000040: a547 23be c210 bebd b6e0 a9bc 8ffd 173d
00000050: 2550 06be 63c8 c9bd 79b2 5bbd 8989 57bd
00000060: 300d 5cbe aea6 10be de7a 4fbe 8ae2 9cbc
00000070: b25c 55bb 121c 25bd ad6b adbd 9999 993d
00000080: 455b 023d c6c0 febd 9cae dc3d a532 6abd
00000090: 0ec1 9a3d b979 45be 578e 2f3c 3609 ffbd
000000a0: 7554 573c c848 01bd 5119 c9bd f715 b0bd
000000b0: 4d88 a0bb 1b7c 493c 3652 973d 0a4e 9c3d
000000c0: 8cea 56bd ee32 cabd 14ee 433c 6c75 d5bd
000000d0: b126 d7bd 01e3 73bd 21d7 2e3d 402b aebc
000000e0: f5a7 923c 49f4 3cbe c80f f23d 89e3 e2bd
000000f0: c430 9d3c ec68 fa3d efac ea3c 2776 0cbd
00000100: 2843 21bc a343 283d 399d a63d 577f 01bd
00000110: c1c7 b83d 0833 bd3d 59d7 993d 717e 683d
00000120: 09d1 4c3a da99 fcbd f4d1 a63d 7fe7 44bd
00000130: 24e3 77bd ebaa a2bd cfed 30be f232 40bc
00000140: 47a9 8fbd 75e1 273e cbdf c6bd 3166 f33d
00000150: e3db e53c 341e 67bd 3d98 b2bc f43b f1bd
00000160: 2d70 babc 90a7 00be 054d 0ebe 7d4b c2ba
00000170: 88b9 953c 161d d9bd fe74 2ebe 1310 6a3c
00000180: 1d0c 52bd cb7e b1bb 8b5c a0bd 6e96 c4bb
00000190: 731d 013b 0a03 923d 6f82 32bd 85fc 8d3e
000001a0: 605d 24be aeaf 91be a7a8 9dbd e39e 85bd
000001b0: a68d 4bbe a4b3 5d3b ca25 7abe 325b 413d
000001c0: 63f2 ed3d f044 80bd 45dc 9ebd fa9f 80bc
000001d0: 9032 5e3b 60b0 21bd 25ba 72be 75e5 593e
000001e0: 4ee3 063d 9d00 f6bd 8e0a db3d f1a3 e93c
000001f0: 1ba4 733d 4b8f c13d 9caa f83d 8e14 2cbd
00000200: 1020 37be 5cd0 47bd 6601 fdbd 048a 25bd
00000210: c69a 14bd f180 8a3c 69aa ab3c b362 203d
00000220: 0046 703d c3ab d33d dfad 8d3e ee63 663e
00000230: 5da4 e43d ee0b e8bd 7f5a 82bd ae1b ce3c
00000240: 3de0 923e 5e73 54be 603f d9bd 0557 83ba
00000250: 4ddd 85bb 3dee 9ebd 1624 e83d e2a2 e1bd
00000260: 6096 af3d 5cf8 e3bd 53fa 513d 5fbd 4f3d
00000270: 4fb4 24bd 2b85 313d ee99 45bd f857 08be
00000280: e54b a13d ea2c 34be a7c2 853d e55a 173c
00000290: 2bb2 fdbd 7ecb 2b3c ecbd c1bd 8cb6 763e
000002a0: 15cc 013e dbc4 a43e cafb 59be fd27 483d
000002b0: f6b3 f4bb 4460 a43d 658e 9f3e b099 12bc
000002c0: 37b3 fbbd b2f4 87bc 0b09 dfbd ff82 a1bd
000002d0: b43b 3bbd 233c 11bb e756 473e 09b6 173e
000002e0: f64d bf3d e4a9 323d 120a 09bd cc8f 0d3d
000002f0: bc1b b53d 5080 e03d a38c e4bd ae60 82bd
00000300: 67a4 203e a22d f3bd 821e 5b3d 55ae b53d
00000310: 0e03 673d ab23 ba3d eec9 913e 9f5d 3ebd
00000320: d7da 59bd 8b7f 393d d19a bd3d 64c7 33be
00000330: bb26 b2bc ff97 ecbc 5b85 e8bc ef79 d9bd
00000340: 3a5d f9bd 2a59 3b3e 185b a13d 58b0 c1bd
00000350: 4941 5a3d 06a7 093e a08f 9a3c eea2 643e
00000360: 407e 7e3e da13 4b3e 7b3e 463e e450 943d
00000370: ebf3 7e3e 70a6 ab3c 8bf5 193e 7084 aa3d
00000380: ffad c13d 6b3d 053e 6510 8ebd ce56 0a3d
00000390: 188a a7bd 7f9b 0f3e 0cf6 2dbe 442e 663e
000003a0: 9426 6ebe df2f 5d3e db26 853d dc95 15bd
000003b0: 4346 4e3e 5709 9b3d 7716 86be 0f6d 2d3d
000003c0: 5d18 7a3d 2796 dc3d 7784 9cbc 0ee4 89bd
000003d0: 5ee4 993d 67ce 4a3d 884b 17be afb4 c13c
000003e0: f291 cf3d dc1e 543d 5178 b2bd d829 c93d
000003f0: a37e 013e 70e6 f83d 2c18 983d ae3f f2bc
-0.060485452 0.08976566 0.06694518 -0.014294964 0.010033528 -0.12011745 -0.16459925 -0.064310715
0.0041463953 -0.07992827 0.016196812 0.07644009 -0.112167515 -0.018608894 -0.083618484 0.112416156
-0.15945299 -0.0928054 -0.020737033 0.037107047 -0.1311651 -0.09852674 -0.053637 -0.052621398
-0.21489406 -0.14126083 -0.20261714 -0.019150991 -0.0032556471 -0.040309973 -0.08467803 0.074999996
0.031825323 -0.12439112 0.107754916 -0.057177205 0.075563535 -0.19284715 0.010715089 -0.12452929
0.013142695 -0.03156355 -0.09819282 -0.085979395 -0.004899061 0.012297655 0.07388727 0.07632072
-0.052469775 -0.09872995 0.011958618 -0.10422787 -0.10505427 -0.05954266 0.04268563 -0.021260858
0.017902354 -0.18452562 0.11819416 -0.11078555 0.019188292 0.122270435 0.028646914 -0.034292366
-0.009842671 0.04108013 0.081354566 -0.03161558 0.09022475 0.09238249 0.075117774 0.05676121
0.0007813131 -0.12334032 0.08145514 -0.048072334 -0.060519353 -0.07942756 -0.17278217 -0.011730896
-0.07014709 0.16394599 -0.09710654 0.11884726 0.028058952 -0.05642529 -0.021801108 -0.11779013
-0.022758568 -0.1256392 -0.13896568 -0.0014823523 0.018276945 -0.10601251 -0.17036816 0.014286059
-0.051281083 -0.005416726 -0.07830151 -0.005999378 0.001970139 0.07129486 -0.043581422 0.2773172
-0.16051245 -0.28454345 -0.076981835 -0.06524446 -0.19878253 0.0033828998 -0.24428478 0.04720611
0.11618497 -0.06263149 -0.07756857 -0.015701283 0.003390465 -0.039474845 -0.23703821 0.21278937
0.03293162 -0.12011836 0.106953725 0.028520556 0.059482675 0.09451159 0.12141916 -0.04201179
-0.17883325 -0.04878269 -0.12353782 -0.040414825 -0.036280416 0.016907187 0.020955281 0.039156627
0.058660507 0.10335495 0.27671716 0.22499058 0.11164162 -0.113304004 -0.06364917 0.025159683
0.28686705 -0.20747134 -0.10607791 -0.0010020441 -0.004085219 -0.07760284 0.11335008 -0.110173956
0.08573604 -0.11131355 0.05126412 0.050717708 -0.04021102 0.04333989 -0.048242502 -0.13314807
0.07875804 -0.17595258 0.065312676 0.00923798 -0.123874985 0.010485528 -0.09460053 0.24093074
0.12675507 0.3218144 -0.21287456 0.04886626 -0.007467742 0.08026174 0.31163326 -0.008947775
-0.12290042 -0.016596172 -0.10890397 -0.07886314 -0.045711234 -0.0022161088 0.19466744 0.14815535
0.09341042 0.04361905 -0.03345687 0.034560964 0.088431805 0.10961974 -0.11159637 -0.063660964
0.15687715 -0.11873938 0.05349589 0.08871142 0.056399398 0.090888344 0.28474373 -0.046476003
-0.053187218 0.04528765 0.092580445 -0.1755653 -0.021746984 -0.028881071 -0.028383901 -0.1061896
-0.12175985 0.18295732 0.07878703 -0.09457463 0.053284917 0.1344262 0.018867314 0.22327778
0.24852848 0.19831792 0.19359772 0.07241991 0.24897735 0.020953387 0.15035073 0.08326042
0.09457015 0.1301171 -0.06936721 0.03377419 -0.08180636 0.14024161 -0.1698839 0.22478586
-0.23256904 0.21600293 0.06501552 -0.03651987 0.2014399 0.07570141 -0.26189014 0.042340335
0.06105839 0.10770827 -0.019106133 -0.06732951 0.07514261 0.049513247 -0.14774907 0.023645727
0.10135259 0.051787242 -0.08714355 0.09822434 0.12645964 0.121533275 0.074264854 -0.02957138

net.2.bias f4 [64]
00000000: 3ac7 bebd a9f9 b4bd 7790 443d 2bde 873c
00000010: 0d8b a53c 697d 003d 0364 133e 8c55 a23e
00000020: eece 9bbd e58f df3d aa6c 5c3d 18df 5b3e
00000030: 067b 343e 98ca 18bd 3d9a b13e 2f42 1c3e
00000040: 95c0 143d ad25 553c f6ea 623e 2899 603e
00000050: 165a 453e 0210 823d ec01 303c b939 483d
00000060: 0478 f23d 748c 763d 2ffb 353b aa69 00bd
00000070: aba1 3ebd 6585 99bd 1342 b93d 94bb 963d
00000080: f009 cb3d 83bf c0bd a7d9 733d 2955 1bbd
00000090: 941d c0bd da85 c13d c27e 69bc b563 143d
000000a0: c06c 613e c1c3 833d b9f6 dd3d 633c 87be
000000b0: 766f 543c 612e 13bc 009f 303e 0300 fc3d
000000c0: cac2 203e cdb3 763e 7ee2 d6bd a86b a5bd
000000d0: 8c7d 09be d86d 3f3e 9200 5c3e 8312 aebd
000000e0: a0a1 c93d 942d a33d 2176 833d 8544 123d
000000f0: d55b 153e 5ad3 11bd 0eee c23d 7607 c13b
-0.09315343 -0.088366814 0.047989335 0.01658543 0.020207906 0.0313696 0.1439362 0.31705892
-0.07607828 0.109161176 0.053814568 0.21471822 0.17625055 -0.037302583 0.34687987 0.15259622
0.036316473 0.013009471 0.22159943 0.21933424 0.19272646 0.063507095 0.010742646 0.048883174
0.118392974 0.06019254 0.0027768125 -0.03135077 -0.046540897 -0.07496146 0.09045806 0.073599964
0.09914005 -0.09411528 0.05953374 -0.037923012 -0.093806416 0.09449358 -0.014251413 0.0362279
0.22014141 0.064338215 0.10838074 -0.2641326 0.0129660275 -0.008983226 0.17248154 0.1230469
0.15699306 0.24092026 -0.10492419 -0.080771744 -0.13426799 0.18694246 0.21484593 -0.084996246
0.09845281 0.07967678 0.06419016 0.035709877 0.14585812 -0.03560195 0.095180616 0.005890782

net.4.weight f4 [2, 64]
00000000: f7ee d0bc 5fd6 aebc 9fdb 8abd f6f6 333e
00000010: f2c4 0bbc e609 3f3e 1b3f 183e 6965 fc3d
00000020: a4e0 f6bd 6d8a 6f3d 3fb6 863d 4c0a 3a3e
00000030: cac6 543e e3d4 e9bc a9af 883e 271d 8d3e
00000040: f64f 7abe d467 0bbf b19c 523e c001 a53d
00000050: 6be2 be3d 7282 e33c 4988 cebd dbee 08bf
00000060: 0287 853e 8ff5 4ebc abad 0b3d 8048 543e
00000070: 1c79 a53c 61e4 aa3b 24f6 cdbd 179f b3bd
00000080: dbeb 6e3d 1f72 aabc c063 463e 059c 3fbb
00000090: a07c 5dbe 960e 0d3e 381e bfbe 5d5c 2abd
000000a0: 4d01 9c3e 1b92 143e f634 4e3e 6b97 a4be
000000b0: 462b e2be 4e1e 89bd c2b3 033e a608 8b3e
000000c0: 5952 c63d 7d19 a53e 20b8 7cbc 8533 1cbc
000000d0: a02d 48bd e26f 9cbf 32db 353e d616 803d
000000e0: 18da 503d e077 eebc 7650 e13c 572b 1c3e
000000f0: 8d75 1e3b dae3 12be 9eed 423e 5bc9 e4bd
00000100: 9b23 833b 8291 a5bd a011 f1bd 20c7 13be
00000110: 675b 983e b62f 9abd 96f8 853d d917 993e
00000120: 1c3c 6f3d 661e c1bd e973 49bd 49f9 123e
00000130: e3de 7d3e 0bbc 813d 6e65 e43d 61a6 0e3e
00000140: dcfe 5f3e 0a04 8abb 41c2 0f3e 479c d7bc
00000150: 6ddf 7a3c 8ca6 003e 15ff e3bc b92f 1f3e
00000160: ffb9 8abd dbbd b0bd edbe c33d cc80 12be
00000170: 25a3 a6bc bac9 d2be bada 43bb bf46 48bb
00000180: 6074 f3bc 57a9 fc3d 0e9d cd3d 2b74 72be
00000190: 9bfe 37be 4268 9abe 7ecd 2f3e c884 31bb
000001a0: 12de 91bd 706d 61be 171a b9bd 2e18 3d3e
000001b0: 0c7c 88be 2620 b93d b829 09bd daac d83d
000001c0: 131f 8bbc 6334 193d 6598 88bc 9a51 1b3c
000001d0: 03fc 3abd 06d4 14be 5712 5f3c abe2 3cbe
000001e0: 2d0b 42bd 489c d9bd 3bb4 a83d aaac 84be
000001f0: 3141 3a3d 9ccd 503e 63cb ddbc 2d39 03be
-0.025504572 -0.021342454 -0.06780171 0.17574677 -0.008530842 0.1865612 0.14867823 0.1232403
-0.120545655 0.058481622 0.065777294 0.1816799 0.20778957 -0.028543895 0.26696518 0.27561304
-0.24444565 -0.54455304 0.20567586 0.080569744 0.093205296 0.027772162 -0.10084588 -0.53489465
0.26079565 -0.012631788 0.03410117 0.20730782 0.020199351 0.005215213 -0.10056713 -0.08770578
0.058330398 -0.02080637 0.19373989 -0.0029237282 -0.21629572 0.13775095 -0.37327743 -0.04159199
0.30469742 0.1450886 0.2013739 -0.32146773 -0.4417364 -0.06695233 0.12861541 0.27155036
0.09683675 0.3224601 -0.015424758 -0.009533768 -0.048871636 -1.2221644 0.17759398 0.062543556
0.05098924 -0.029109895 0.027504187 0.15250908 0.0024178952 -0.14344731 0.19035956 -0.11171218
0.0040020472 -0.08084394 -0.1177094 -0.14431429 0.29757234 -0.075286314 0.06541555 0.29901007
0.058406934 -0.09429626 -0.049182806 0.14352907 0.24792056 0.063346945 0.11152159 0.13930656
0.21874565 -0.0042119073 0.14038946 -0.026319636 0.015312058 0.12563533 -0.027831594 0.15545548
-0.06773757 -0.08629962 0.095579006 -0.14306945 -0.020341465 -0.4116953 -0.002988501 -0.0030559746
-0.029718578 0.123369865 0.100397214 -0.23677127 -0.17968218 -0.30157667 0.17168233 -0.00270872
-0.07122435 -0.22014403 -0.09038179 0.18466255 -0.2665714 0.09039335 -0.03348705 0.10579844
-0.01698259 0.037403475 -0.01667423 0.009479905 -0.045650493 -0.14534006 0.013615212 -0.18445842
-0.04737394 -0.106255114 0.08237501 -0.25912982 0.045472328 0.20390934 -0.027074521 -0.1281478

net.4.bias f4 [2]
00000000: 988f 473e 9202 183e
0.1948837 0.1484473
