outputs/lv.pt (torch, 23129 bytes, 6 tensors)

net.0.weight f4 [64, 9]
000000 05 47 c5 bd 9b 33 61 be bc 10 31 be fa 49 1b bf
       -0.096326865 -0.21992342 -0.1729154 -0.60659754
000010 40 42 29 bd c9 f5 17 3d 9c b8 7e bd 02 37 53 3f
       -0.041322947 0.037099633 -0.062187776 0.8250581
000020 eb fe d4 be 23 b4 5c bc 52 5e 57 3e a5 d8 97 3e
       -0.41600737 -0.013470682 0.21032074 0.29657474
000030 37 bd d5 3e 7c 46 95 bd 46 e0 fc 3d 28 62 00 bf
       0.41745922 -0.072888345 0.12347464 -0.50149775
000040 c1 e5 ac bf b1 9b 3c be cd f3 6e be 98 52 b1 be
       -1.3507615 -0.18418767 -0.2333519 -0.34633327
000050 fb 17 87 be 0a ad 66 3c 5c c1 d6 3d c1 3b ea 3d
       -0.26385483 0.014079342 0.10486099 0.114371784
000060 81 8d ab bc a0 b5 dd 3e 8c 53 40 3e cc 7c 81 3d
       -0.020941498 0.4330263 0.1878187 0.06322631
000070 40 dd 4f bd 36 6d a7 3d 96 f9 08 3e eb a9 e4 3c
       -0.05074811 0.08175127 0.1337646 0.027913054
000080 25 39 c1 bd 88 95 97 bf 82 d0 0a 3f 21 6f d7 be
       -0.094347276 -1.1842508 0.5422441 -0.42076972
000090 61 f4 a0 3e a8 61 79 be d0 3e c1 bd d5 18 b2 3e
       0.31436446 -0.24353659 -0.09435809 0.3478457
0000a0 f3 04 1d 3e 9c 6b 29 be 68 13 2f 3f 0f a4 ca 3e
       0.15333919 -0.16544956 0.68388987 0.39578292
0000b0 f3 c9 33 3e 8c 4a b1 3c c0 2c a1 be a1 10 01 bf
       0.17557506 0.021641992 -0.31479454 -0.50416
0000c0 c6 78 e9 3d 64 3e 25 3e b3 2d 00 3e b1 28 87 bd
       0.11399989 0.16137081 0.12517433 -0.06599558
0000d0 26 27 e7 be 10 fa 88 be fc 80 ff 3d 29 e6 13 3e
       -0.45147055 -0.26753283 0.12475774 0.14443268
0000e0 37 6b 65 be d3 a9 71 3e 80 56 c5 3c ce 51 6d 3e
       -0.2240418 0.23599939 0.024089098 0.23175737
0000f0 39 b4 59 3f bc 65 8f bf ed b0 70 bc 39 4a db 3d
       0.8504062 -1.1202922 -0.01469062 0.10707516
000100 ad a0 ce bd da 9a d7 3e 51 1e 97 3e 93 5b 81 be
       -0.1008924 0.4211033 0.29515317 -0.25265178
000110 33 1e 15 be 40 72 bb 3d 2e 58 98 3d 75 16 96 be
       -0.14562301 0.09152651 0.07438694 -0.29314008
000120 79 d0 df bd 3c 5b 53 be 8b b9 d4 3e 51 db 00 bf
       -0.10928435 -0.20640272 0.41547808 -0.5033465
000130 8f ac f0 bd 81 d9 ac 3d ff 4f 5c 3c c0 08 ab 3e
       -0.11751663 0.08439923 0.013446807 0.33405113
000140 d1 13 3e be 12 0d 22 3d 4e 62 51 3d 6e 5f de be
       -0.18562247 0.039563246 0.05111914 -0.43432182
000150 4c 37 47 bc d8 03 0e bd 9a 11 87 3d 9c e2 a2 bf
       -0.01215918 -0.034671634 0.06595154 -1.2725406
000160 9e e4 51 3f 41 f1 ce be c8 c9 8a 3e f8 dc 9b be
       0.8198947 -0.40418437 0.27107072 -0.30442023
000170 0f 0a b0 3c 09 18 82 3e 65 aa 96 3d 22 21 f1 3d
       0.021489171 0.25408962 0.07356719 0.11773898
000180 54 e4 31 bf 8a 91 f8 3d 8b 0c c2 be f3 72 4e 3d
       -0.69489026 0.121371344 -0.37900195 0.050402593
000190 56 07 f5 bd b0 b8 02 3f 71 c7 00 bf ce 91 b5 bd
       -0.1196429 0.5106306 -0.50304323 -0.08865701
0001a0 de 38 af 3d ca 99 9f 3e 4a 5f 7f 3e 2f 80 d2 be
       0.085557684 0.3117202 0.24938694 -0.4111342
0001b0 4c c6 62 be 1e 54 33 bc a0 51 a6 bd d9 de 86 3e
       -0.22145957 -0.010945348 -0.081210375 0.26341894
0001c0 bb b6 19 3e eb b7 a5 bd 97 af 17 3f 62 20 2c 3f
       0.15011112 -0.0809172 0.59252304 0.6723691
0001d0 87 fd 9b 3e 70 f6 72 be 6f 73 82 3e f6 e7 97 be
       0.30466864 -0.23726821 0.25478694 -0.2966916
0001e0 e5 fd 9d be 23 14 26 be 95 a2 f1 3d ff 1c 6c 3e
       -0.3085777 -0.16218619 0.11798588 0.23057936
0001f0 6f a9 ea be ca 54 88 be 1c 0f ba bd 98 97 ce 3d
       -0.45832393 -0.2662719 -0.09084913 0.10087508
000200 03 e7 0a 3e 83 97 29 3e b8 a6 81 bd d9 01 f3 3d
       0.13564686 0.16561703 -0.06330627 0.11865587
000210 56 cf ef be c9 86 cf 3d 43 25 3d 3d 9b ff 8c be
       -0.46837872 0.1013313 0.046178114 -0.27538761
000220 bd 4f 3a 3e a9 c2 7c bd ef 74 12 3e e6 c1 0e 3e
       0.1819448 -0.06170908 0.14302419 0.13941154
000230 51 d2 30 3c 63 79 41 3f 12 0c 39 3e 26 9a f0 bc
       0.010792331 0.75575846 0.1807101 -0.029370379
000240 4a d2 aa 3d 66 cf 2d 3e 8d c9 03 be 16 79 ba 3c
       0.08340891 0.16973647 -0.12869854 0.022762816
000250 12 0a 89 3e 6a 9b ac bc 81 a6 b6 be cd 7e 8d 3f
       0.26765496 -0.021070201 -0.35673907 1.1054322
000260 e6 7b 3f bd b5 22 18 bc 66 ad 03 be 55 50 a2 be
       -0.046749018 -0.009285619 -0.12859115 -0.31701913
000270 dd ab 07 bf ae 7e 71 3d 58 2b d1 3d 06 de 7d be
       -0.5299662 0.0589587 0.10213345 -0.24791726
000280 95 90 58 3f 89 e4 96 3e 3d 68 85 bd 7b 99 db bd
       0.84595615 0.29471233 -0.065140225 -0.107226335
000290 86 d0 45 be 47 93 8b 3d 1a 72 c1 3d cc bc 1a bd
       -0.19317827 0.068152 0.09445591 -0.037777707
0002a0 21 92 85 bf 4a f6 17 bf af 6b eb 3e 21 94 72 bc
       -1.043522 -0.5936018 0.45980594 -0.0148058245
0002b0 b7 e3 d2 bc ee 4b 98 3d b6 0c d5 bc 5e c1 63 3d
       -0.025743349 0.074363574 -0.026007038 0.05560433
0002c0 34 cb 2c 3b 90 ba 8d 3f 70 98 8a bd 2a de fd be
       0.0026366236 1.1072559 -0.067673564 -0.4958356
0002d0 f1 1f 49 3e f9 a2 3d 3c fc ca 5c be 1f 53 6f 3e
       0.19641091 0.0115745 -0.21561807 0.23371552
0002e0 5c 4b 89 bc 3e 3e 84 3c 2d e4 57 3f d7 1a 75 3e
       -0.016759567 0.01614296 0.84332544 0.2393602
0002f0 df 9e 96 bd c8 22 5b 3e e6 78 82 3d 8a 42 b2 be
       -0.07354521 0.21399987 0.06370716 -0.3481639
000300 95 37 14 3e 9e a2 7f be 2c f1 3a be 1f 60 91 3d
       0.14474328 -0.24964377 -0.18256062 0.07098412
000310 1f cc 37 be 77 5b 96 3e 3e c3 82 be 84 16 87 3d
       -0.1794896 0.29366657 -0.25539583 0.065960914
000320 5b 0a b8 3e 56 a5 5b be 2f 5a 29 3e c4 dd 0a be
       0.359454 -0.2144979 0.16538309 -0.1356116
000330 78 56 fa 3d f4 34 25 3f 2a 85 b0 be 58 16 3d 3e
       0.12223524 0.64533925 -0.34476596 0.18465555
000340 44 2f 60 bc 73 01 3d 3f 1c 2e d4 be b1 f9 b4 3c
       -0.013683144 0.73830336 -0.4144143 0.022091718
000350 da f7 19 3e d6 fa 55 3f 37 6c 1a 3f c0 3c e5 3e
       0.15035954 0.8358587 0.6032137 0.4477291
000360 75 a4 19 3c 89 4c 8c bb 67 b3 38 3b 30 c2 02 3d
       0.0093775885 -0.0042815846 0.0028183104 0.031923473
000370 ab bb 20 bc b8 39 22 3d 4f 98 76 bf 31 db 4d 3f
       -0.0098103685 0.039605826 -0.96326154 0.80412585
000380 e4 d0 a0 be 86 08 7f bd db 65 58 be 85 02 fb 3d
       -0.3140937 -0.062263988 -0.21132605 0.1225634
000390 8f 5a 5d 3e d7 ba 36 be 87 df 0f be bd 5b 85 be
       0.21616577 -0.17844711 -0.14050113 -0.26046553
0003a0 38 50 53 3f df e3 bc 3e a7 4f 13 3e fc c8 43 3e
       0.8254428 0.36892602 0.14385854 0.19119638
0003b0 83 ec e2 3e 6e 6f a1 be 25 85 28 3e 6d 25 b6 3d
       0.4432107 -0.31530327 0.1645704 0.08893857
0003c0 8c 1a 83 be 60 ed ad be 88 d8 47 3e fc 96 2b 3d
       -0.2560619 -0.33970165 0.19516194 0.041892037
0003d0 14 fd 80 be 21 be c8 be 2d fb 17 bf a5 f6 0b 3d
       -0.25193083 -0.39207557 -0.5936764 0.034170765
0003e0 8e 97 32 3c de 64 95 be 06 35 04 3f 28 73 a1 be
       0.010900391 -0.29178518 0.5164341 -0.3153317
0003f0 f0 68 2a 3e 6d 57 65 3e b5 e0 b9 3e 69 a5 31 bd
       0.16641593 0.22396632 0.3630425 -0.043370638

net.0.bias f4 [64]
000000 2c 58 98 bb f4 f8 82 bc 0c 9f 8f 3d cd 17 cf 3c
       -0.004649183 -0.01598785 0.07012758 0.025279904
000010 d1 39 79 be 8f 12 6f bd 3e bf 9f bd a1 02 18 3e
       -0.24338461 -0.05836731 -0.078001484 0.14844753
000020 8a b6 8a 3e 86 6f ef bd f9 be 98 3e 09 63 4b 3c
       0.2709239 -0.11691193 0.298332 0.012413749
000030 ec 7c 85 bc e8 80 b0 bd a5 42 5d 3e e6 f0 c3 bd
       -0.016294919 -0.08618337 0.21607454 -0.09567432
000040 0c 5b bd 3e f1 fe 04 3e c5 61 00 3f eb 58 99 3e
       0.36983526 0.12987877 0.50149184 0.29950652
000050 44 9e a6 3e 62 8b 6e 3d 25 30 95 3d da 54 8b 3e
       0.32542622 0.058238395 0.072845735 0.27213174
000060 b9 18 f5 be 31 e1 f4 3e c8 80 82 3e 9e 81 b8 3d
       -0.47870424 0.47828057 0.25488877 0.090090975
000070 c5 7a 40 3e d0 89 cc 3c 0e e0 4e 3b 91 2f 8b 3e
       0.18796833 0.024968058 0.0031566652 0.27184728
000080 85 2d bd 3e 33 83 b4 3e e6 4a 87 3e 53 05 97 be
       0.3694879 0.35256347 0.2642433 -0.2949625
000090 88 73 70 3e 46 ba 30 bd e3 ed 90 3e ff 2c 6a 3e
       0.23481572 -0.043146394 0.28306493 0.22868727
0000a0 f4 72 c8 3e 0f 63 2a be 51 90 03 bd 78 c2 0f 3e
       0.39150202 -0.1663935 -0.032120053 0.14039028
0000b0 31 89 7f 3e b8 9c 42 be c5 55 a4 3e dc 34 06 3e
       0.24954678 -0.19005096 0.32096687 0.13106102
0000c0 e1 34 cb 3e a8 93 b5 3e f5 24 91 3e 1e d6 97 3e
       0.3968878 0.35464215 0.28348508 0.29655546
0000d0 8e 52 e3 3e 68 d7 be 3d 57 80 10 3f 92 31 02 bc
       0.44398922 0.09318429 0.5644583 -0.007946389
0000e0 f1 b1 76 3d ab 69 9d 3e 1f 8e 74 be e2 8c 37 3d
       0.060228292 0.3074468 -0.2388234 0.04481209
0000f0 c5 e2 7f be f2 91 7c 3e 09 86 ed 3d 77 84 b1 3e
       -0.2498885 0.24665049 0.11597831 0.34671375

net.2.weight f4 [64, 64]
000000 da d1 30 3c b3 1d 4e be 80 cd 89 bc 2a e9 8a be
       0.01079222 -0.20128517 -0.016821623 -0.27131015
000010 b1 ad a6 3d ce 8c 42 bd 88 50 a2 3d 7c 70 c8 3d
       0.08138598 -0.047497563 0.07925516 0.0978708
000020 eb d9 ab 3c b0 63 96 3d 44 9b 7d be 6c 99 af 3c
       0.020977935 0.07343233 -0.2476626 0.021435462
000030 05 58 74 3e dd 97 6f bd 76 bc 90 3b cc 6e b3 3d
       0.23861702 -0.058494437 0.0044169975 0.08761367
000040 1b f7 18 3e 68 fa e8 be 52 0d 8a be fb a8 04 3f
       0.14938013 -0.45503545 -0.26963288 0.51820344
000050 ff 42 3c 3e dc 85 4a 3e 49 3b 28 3e 52 54 5d 3e
       0.18384932 0.19777626 0.16428865 0.21614197
000060 26 1e 48 be a2 2a 84 3e 85 3d 4d bd b7 70 01 be
       -0.1954275 0.25813776 -0.050107498 -0.12640654
000070 ee 61 20 3e 37 da 66 3e 76 25 85 3e cc b0 ae be
       0.15662357 0.2254418 0.26005143 -0.3411926
000080 39 bf da bd 02 de 27 3e d7 42 96 3d 8f 17 05 3b
       -0.10681004 0.16393283 0.073369674 0.0020308231
000090 d4 0a a8 bc 75 7e 14 bf 79 08 f8 3c f8 83 a1 3d
       -0.020512976 -0.5800546 0.030277478 0.07886499
0000a0 80 0d bb bc c9 e9 e3 bd 93 65 c0 bd 82 48 78 be
       -0.022833586 -0.11128575 -0.09394374 -0.2424641
0000b0 84 4b ea be 03 11 c0 bd 41 cc 5d be 9f 06 d0 3e
       -0.4576074 -0.09378245 -0.21659948 0.40630051
0000c0 f3 aa 8c 3c a0 f3 5e be 17 a3 ca be 03 c8 b1 3d
       0.017171359 -0.21772623 -0.39577553 0.08680727
0000d0 d0 d3 af bd ea 6c 8f 3e d4 06 eb bd 9d 2d 5e 3c
       -0.08585322 0.28012782 -0.11475912 0.01356068
0000e0 9b cf db 3d 5c 22 34 3e a9 b8 b1 3e 96 ed 8a 3e
       0.10732957 0.17591232 0.34711197 0.2713439
0000f0 ed 1e d6 bd c3 06 0b be 49 88 d7 be be fd c6 bd
       -0.104551174 -0.13576798 -0.42096165 -0.09716366
000100 42 ba c3 bd c9 63 44 3d 44 2d a4 3d aa c5 b8 3d
       -0.0955701 0.047946725 0.08016446 0.090220764
000110 25 88 78 bc ea e6 43 3e ec d2 fa 3d 1d 12 5f bd
       -0.015169178 0.19131055 0.122472614 -0.054460634
000120 48 96 19 be 37 d5 67 3e 02 55 02 3e 09 fd 8d be
       -0.14998734 0.22639929 0.1272774 -0.27732113
000130 35 46 9a bd 95 6f bf 3d 18 5f 93 3d d1 1e 1a 3e
       -0.07532922 0.093474545 0.07195872 0.15050818
000140 7e b4 4b 3e 35 47 f0 bd 6f 86 07 bd d6 d9 64 3e
       0.19893071 -0.11732332 -0.03308719 0.22348723
000150 80 11 c5 3d dc 86 80 3c d6 9d cc 3d ae 15 7b be
       0.096224785 0.015689306 0.09991042 -0.24519989
000160 5f 26 c4 bd aa 27 61 3d 2b 6e 35 bd bf fc e1 bd
       -0.09577631 0.054969467 -0.044294517 -0.110345356
000170 be 63 a4 bc 4f 8e 0c 3d 99 e3 29 3b 37 61 4c bd
       -0.020067092 0.034315404 0.0025923012 -0.0498974
000180 69 99 f5 3d dc 9d eb 3c 9c 47 0b bb 84 b5 13 3d
       0.11992151 0.028761797 -0.00212524 0.03606178
000190 a7 40 0c bd b8 f1 d9 3d 5e dd de 3d f6 40 21 3d
       -0.034241345 0.10641807 0.10882066 0.039368592
0001a0 c2 8f 9d be f1 4a ab bd 10 c2 0c be 6d 0a ad bd
       -0.3077374 -0.08363903 -0.13745904 -0.08449254
0001b0 a5 62 05 3e c9 2d da bc d7 1f 97 3d 34 f5 a7 3d
       0.13025911 -0.02663316 0.0737912 0.08201066
0001c0 aa b1 d1 3d 2c 82 c7 3d 68 da ee 3d db 6e bd 3d
       0.10238965 0.09741625 0.116627514 0.0924966
0001d0 0d b3 81 be 8b 0d b3 3d 80 7b d1 3d 86 bd 1e bd
       -0.25331917 0.087428175 0.10228634 -0.038754962
0001e0 87 8b 30 3d 68 a9 ea 3c 9b e9 97 3d 5c 91 cf bd
       0.043101814 0.028645232 0.074176036 -0.10135147
0001f0 a8 45 7e be 75 f6 99 3e 69 c8 5e 3e 59 7f 06 3e
       -0.24831259 0.30070844 0.21756138 0.13134517
000200 cf ab 3d 3e 7e e5 e5 be bd c7 25 3e f9 6d c1 3d
       0.18522571 -0.4490165 0.16189475 0.09444804
000210 cc 6c 26 3d cd 9e 73 3c 58 4e 42 be db 62 77 be
       0.0406311 0.014869404 -0.18975198 -0.24158804
000220 42 e5 b0 3d 36 12 97 3e 94 ce 83 bd 35 cf 1b 3e
       0.086374775 0.2950608 -0.06435886 0.15215762
000230 29 be b7 bd 4c 1d 4f 3e db f4 d6 bd 4d 48 b1 bd
       -0.08971817 0.2022602 -0.10495921 -0.086563684
000240 aa ff 4d 3e de 59 4f 3e 05 97 3e 3e 7b ec 46 3d
       0.2011706 0.20249125 0.18612297 0.04856537
000250 fb b3 85 be 16 65 f9 3d 52 54 5c be 6b 51 c3 be
       -0.26113877 0.12177484 -0.2151654 -0.38148054
000260 f5 75 d6 3e 03 11 c4 bd 6c d5 8a bd fa ba c8 3e
       0.4188687 -0.09573557 -0.06778988 0.39205152
000270 57 29 2b be ff 69 82 3d b2 4c 66 3e 30 c3 0c be
       -0.16714989 0.063678734 0.22490194 -0.13746333
000280 dc e0 25 3e 26 d3 21 3e ba a8 c0 3e 0d 8a d2 3d
       0.16199058 0.15803203 0.37628728 0.10280237
000290 81 3b b0 3e aa b4 d7 3e 11 4b 65 be 8e 37 4a be
       0.34420398 0.42130023 -0.22391917 -0.19747755
0002a0 04 f1 1e be ee 8b 10 3d f3 8b eb 3d d1 a8 3e be
       -0.15521628 0.035289697 0.115013026 -0.18619086
0002b0 ff 8c d5 3e 85 0b db bd 10 51 56 3e f9 e0 1e be
       0.41709134 -0.106955566 0.2092936 -0.15515508
0002c0 d1 49 01 3e 3e e5 36 3c 18 17 4b bd d4 d8 87 3e
       0.12625815 0.011163054 -0.04958257 0.26532614
0002d0 c0 4d 80 be 60 85 92 bd b7 17 75 3e 4d 6a bb bb
       -0.2505932 -0.071543455 0.23934828 -0.005719459
0002e0 e1 fc 68 bd 95 e8 90 3e e1 5b cb 3d 17 bc ce bc
       -0.05688179 0.28302446 0.09929634 -0.025236173
0002f0 3e 0e 64 be 54 0b b7 3e be f5 74 3e f8 d8 28 be
       -0.22271058 0.3575083 0.23921868 -0.16489017
000300 11 15 7e be a7 5a 6d bc e1 a9 c8 3d 5f b3 88 3e
       -0.24812724 -0.014486945 0.09798027 0.2669935
000310 d5 3f 92 3d 24 58 ce bd 53 bc 32 be b2 d5 98 3c
       0.07141081 -0.10075405 -0.17454652 0.018656585
000320 04 5a 44 bd fe 44 6c 3d 4f be 2b 3d a8 e2 34 bd
       -0.047937408 0.057682984 0.04192954 -0.04416147
000330 23 69 06 3d 5a fc b3 bd a2 a7 b1 bc 8b 8d 8f bd
       0.03281511 -0.087883666 -0.021686379 -0.07009419
000340 7f 37 82 bd 31 84 cb be 73 48 e9 3c fa 1c 55 be
       -0.06358241 -0.39749292 0.02847693 -0.20811835
000350 1b f1 88 bd 43 95 4c 3b 1d e3 bd 3d 06 55 7c 3e
       -0.06686612 0.0031216897 0.09271834 0.24641809
000360 80 f3 3b 3e 31 45 48 3e 81 e2 55 3e fc d3 39 be
       0.18354607 0.19557644 0.20887186 -0.18147272
000370 ff 1d 0a 3e 26 ba 33 3d ba c3 32 3e 26 cd b6 3d
       0.13488005 0.043878697 0.17457476 0.08925848
000380 74 e1 98 3e 3d 6f 96 3e 09 c2 bd 3d 38 a8 84 bd
       0.29859507 0.29381743 0.09265525 -0.06477398
000390 2e 80 40 3c 06 d9 a9 3b e7 94 3a 3e f7 db c4 3d
       0.01174931 0.005183342 0.18220864 0.096122675
0003a0 b4 f6 af 3d ed e2 88 bd 09 18 0b be a0 91 bd 3d
       0.08591977 -0.06683908 -0.13583387 0.092562914
0003b0 ff d9 99 bd f6 34 15 3e 93 46 85 3d a3 2d 3e 3e
       -0.075122826 0.14570984 0.065076016 0.18572097
0003c0 ed f0 ad 3d d0 99 d2 3b 49 0c 15 3e 02 e9 b8 3d
       0.084932186 0.0064270273 0.14555468 0.09028818
0003d0 7f 7e fa 3d 43 f8 fc 3d 10 ee 8b be 01 c4 9b bd
       0.122311585 0.1235204 -0.27330065 -0.07605744
0003e0 c8 78 fb 3d 82 fc e1 bd 73 fc 80 3d 4a 03 9f 3c
       0.122788966 -0.1103449 0.06298151 0.019410748
0003f0 3b da 28 3e 00 2f ba bd 38 fa bf be 12 b4 c7 bd
       0.16489498 -0.09090996 -0.3749559 -0.097511426

net.2.bias f4 [64]
000000 be 2c e7 bc 7d e0 81 3d f5 a0 12 bd 09 be a7 3d
       -0.028219577 0.06341646 -0.03579803 0.08190543
000010 34 81 02 3e 2a 02 6c 3e 88 26 66 3d 0a 5b 45 3e
       0.127446 0.230477 0.05618909 0.1927301
000020 70 53 5a 3d bb ed 1a 3d 9a 34 ee 3d 7b 8a 98 3d
       0.05330223 0.037824374 0.11631127 0.07448288
000030 40 b6 00 3e 97 fb 31 be 69 dc 1a 3e e1 db 23 3e
       0.12569523 -0.1738113 0.15123142 0.16001846
000040 f6 e7 00 be 5d b9 e8 3d 6f 58 f4 bc 9a 9d d1 3d
       -0.12588486 0.1136348 -0.029827325 0.10235138
000050 70 9e 1e 3e 9b ce 48 3d 9e d1 34 bc 9c 41 d7 3d
       0.15490127 0.04902516 -0.011036305 0.10510561
000060 15 9a 91 bc c8 0e 81 3d 17 64 e8 3d 80 b7 bc bc
       -0.017773667 0.063016474 0.113472156 -0.023036718
000070 43 4c 38 bd b9 04 18 3d b2 2d 48 bd 36 2f fe 3c
       -0.044994604 0.03711388 -0.048871703 0.031028371
000080 12 f0 b2 bc 12 8b da 3d 2e 76 48 3e 3b bc 1c 3c
       -0.02184299 0.10671057 0.19576332 0.009566362
000090 f6 28 92 3d 8e 0f d8 3d e5 2d 7d 3d 09 61 17 3e
       0.07136719 0.10549842 0.061811347 0.1478311
0000a0 04 64 eb bd d8 04 ee 3d a9 c0 ef bd 41 46 be 3d
       -0.11493686 0.116220176 -0.11706669 0.092907436
0000b0 64 f8 15 3e 4a 3b cf bd 4e 01 1a 3e 22 b7 39 3d
       0.14645535 -0.1011873 0.1503956 0.045340665
0000c0 b3 66 c1 3c 03 b8 08 3e b8 e9 65 3e a4 ad 98 bd
       0.023608541 0.13351445 0.22452438 -0.07454994
0000d0 35 c5 64 3c f9 e7 25 3e 41 d0 e3 bd b5 4f 00 bd
       0.013963033 0.16201772 -0.11123706 -0.031326015
0000e0 bd 13 e4 3a ba 79 e8 3d 82 f3 f3 bc ee 5a f7 3c
       0.0017400902 0.113513425 -0.0297792 0.030194726
0000f0 3d 68 95 3d 12 d8 94 3d 1b 4b a6 3d 80 84 87 bd
       0.072952725 0.07267775 0.08119794 -0.06617069

net.4.weight f4 [5, 64]
000000 aa a0 af bd 03 73 b9 bd 24 f9 16 bf 1e 59 56 3e
       -0.08575566 -0.0905514 -0.5897391 0.20932433
000010 13 1d 10 be 28 32 9d be 7f 6f 76 bd 23 19 0e 3e
       -0.14073591 -0.3070233 -0.060164925 0.13876776
000020 e8 25 3d 3c fa 97 bf 3d 48 9f f1 bd fe 00 27 bf
       0.011544682 0.09355159 -0.117979586 -0.6523589
000030 f8 9d 61 be 5e e9 ae bc 23 7f 24 be 35 fd 2e 3e
       -0.22032917 -0.021351513 -0.16064124 0.17088778
000040 6c 76 21 3d e7 78 01 be 7a 70 84 3e ab 71 53 3d
       0.039419577 -0.12643777 0.25867063 0.051622074
000050 5d f3 2a 3d 3d a4 99 bd 2f 8d 91 bc f4 d8 0a 3e
       0.041735996 -0.07502029 -0.017767517 0.13559324
000060 ad ec 0d bc 77 9f ef be d9 23 17 3d d2 34 d1 bd
       -0.008662385 -0.4680135 0.03689942 -0.10215153
000070 e3 5f 2c be 21 34 91 bd e0 7c e2 be 31 78 8c bd
       -0.16833453 -0.07090021 -0.44235897 -0.06858862
000080 ec 43 ed 3d 6f 9c 3c be 3b 39 86 3e fa 63 f3 3d
       0.11585221 -0.1841905 0.26215538 0.118843034
000090 9e 69 2c be 05 04 4d 3e 77 a0 c6 3e 6a 05 36 3d
       -0.16837165 0.20021065 0.387943 0.044438757
0000a0 58 53 14 bd 7b 55 e3 bd 2c a2 b8 3d 9a 31 e5 3e
       -0.036212295 -0.111002885 0.09015307 0.44764405
0000b0 c3 4c a5 3e a6 05 93 bc e9 ce 3f be 2f 8b 3a 3d
       0.32285127 -0.01794703 -0.18731274 0.045542892
0000c0 1f db 62 3e 13 9d 86 be 9d 7c 7c bd e1 fb 41 be
       0.221539 -0.26291713 -0.061642278 -0.1894374
0000d0 92 c9 15 3e d7 fd 86 3d 82 a1 3e 3e 35 46 e4 bd
       0.14627674 0.06591385 0.18616298 -0.111462034
0000e0 bf f0 0b bf 62 9a 09 3e 7c 7e 9e bd da 53 c8 3e
       -0.54664224 0.13437799 -0.07738969 0.39126474
0000f0 79 e0 ea 3d 0d ed 45 3d 5e d5 25 3e 49 6f 6e 3e
       0.11468596 0.048321772 0.16194674 0.2328464
000100 24 2c 3a 3f a6 7e 9e 3d b9 ae 54 be a8 dc 91 3e
       0.72723603 0.07739 -0.20769776 0.2848866
000110 c9 8e ca be 00 4b 08 3d 9a 62 f6 bd 9a 72 9a 3e
       -0.3956206 0.03327465 -0.120305255 0.3016556
000120 70 52 af 3e c1 70 35 3e 71 fe 9a be 49 c3 10 3d
       0.34242582 0.17718793 -0.30272248 0.03534249
000130 8f ce 14 bd bf 0c 51 3e f7 b5 c3 3e 6b ac f4 3e
       -0.036329802 0.20415018 0.38224766 0.47787794
000140 67 d0 0b be cf 7a de 3d 20 1c 04 be 80 60 6c 3e
       -0.13653718 0.10863268 -0.12901354 0.23083687
000150 fd 5e e6 3d ba b6 a0 be 2f e2 91 3e e7 fd 84 be
       0.11248586 -0.3138941 0.28492877 -0.25974962
000160 bd f9 bb be c9 84 be bd 32 3b 90 3e ba 4b d2 3e
       -0.36713973 -0.093026705 0.28170162 0.410734
000170 70 e8 18 be ec d2 40 bd 5b 98 a1 be 8c 93 3f be
       -0.14932418 -0.04707615 -0.3156155 -0.18708628
000180 3a 0f d4 be 5e 23 1e 3d 4d 4d 0d 3e ef 1a 6f be
       -0.41417867 0.038607948 0.13799019 -0.23350118
000190 a9 2d bc 3e 65 e1 03 be a0 f3 4e be d5 d1 aa 3e
       0.36753586 -0.1287895 -0.20210123 0.33363214
0001a0 d0 b9 0c 3e 9b 68 91 3e 77 fd 6b 3e cd 04 91 be
       0.13742757 0.2840012 0.23045908 -0.28323975
0001b0 99 48 ab be 0c 92 6d 3e 01 d8 f2 bd 2a 5e a5 be
       -0.33453825 0.23200244 -0.11857606 -0.32298404
0001c0 52 5a 25 be b1 14 99 3e 57 a2 2f 3e 9e 8c a0 bd
       -0.16147736 0.298986 0.17151771 -0.078393206
0001d0 fe b2 04 3f 9a 61 cc 3d 55 72 49 be 88 9e 29 3e
       0.5183562 0.099795535 -0.1967252 0.16564381
0001e0 72 11 65 3e 61 7a a1 3e a7 97 5b 3e ac da 9c be
       0.22369936 0.3153868 0.2144457 -0.30635583
0001f0 32 7d 69 3e aa 43 cd be ef 58 b4 3d 52 69 23 3f
       0.22801664 -0.40090686 0.08806025 0.6383258
000200 f1 c0 ac 3c 2a 59 d2 bd c7 e3 ef bd 3f 66 6e 3c
       0.021088095 -0.10270913 -0.11713367 0.014550745
000210 04 c2 e6 bd 80 31 aa bd ec 47 9d 3c c0 1d 9f ba
       -0.11267474 -0.083102226 0.019199334 -0.0012139603
000220 8f 5d c1 3b 80 30 1d bd 2d 97 cf bd 8e 90 94 be
       0.0059010456 -0.03837633 -0.10136256 -0.29016536
000230 b7 97 91 bc 4d c3 6f 3e 08 81 90 3d 5f c8 81 3d
       -0.017772539 0.23414345 0.07055861 0.06337046
000240 47 a6 10 3e 81 23 99 bd 36 54 b6 bd a8 de 68 3e
       0.1412593 -0.07477475 -0.08902781 0.22741187
000250 2f b5 d6 bd be e0 37 3d 3f bd 00 3d 70 15 df bd
       -0.10483777 0.044892065 0.03143048 -0.10892761
000260 13 4f 67 bc 25 42 1f bc 90 08 13 3c 7e 5f a2 3e
       -0.014117974 -0.00972036 0.008974209 0.3171348
000270 c0 06 b9 bd f9 69 90 3d da e7 08 3e 5b be c7 3d
       -0.090344906 0.07051463 0.13369694 0.09753104
000280 72 cb 80 bd 34 f8 af 3d ca 4a b4 3c d7 33 65 bd
       -0.06288804 0.08592263 0.022008318 -0.05595764
000290 36 da ad 3c f4 e1 85 3d 8f c0 1e be e4 4b 17 3d
       0.021222215 0.06537238 -0.15503143 0.03693761
0002a0 a4 84 fd 3d a8 75 99 3d 0a e1 29 3e 53 c6 c8 bd
       0.12378815 0.07493144 0.16589752 -0.09803452
0002b0 b4 3f 37 be d3 00 9b 3d 29 ae a2 bd a7 2f 64 bd
       -0.17895395 0.075685166 -0.07943375 -0.055709507
0002c0 bd 0b 29 3d ea 56 cd 3d 9f ef b6 bd 23 fe 99 3d
       0.04127096 0.10026343 -0.08932423 0.07519176
0002d0 21 d0 9f 3e 49 8e 2c b9 5d e3 d3 3d 6d e5 37 3d
       0.31213477 -0.00016456204 0.103461005 0.04489653
0002e0 d3 7c 70 bc f4 9d 92 bd a4 0d 8a 3d 1f e5 03 3e
       -0.014678198 -0.071590334 0.06740883 0.12880372
0002f0 b2 1d 9e 3d 96 c8 4d 3d 80 73 ed bd 20 75 4c 3e
       0.07720508 0.05024012 -0.115942955 0.19966555
000300 cc 13 67 3d 94 63 13 3e 2c 03 82 3e ae 65 e9 3c
       0.056415364 0.14393455 0.25393045 0.028490867
000310 30 e6 21 3e 8e a7 23 3f 44 28 2e 3e 31 6f fe 3c
       0.15810466 0.63927543 0.17007548 0.03105888
000320 72 22 c8 3d 12 9a 1b 3e af 9a e2 3d 83 63 cd bb
       0.09772195 0.15195492 0.1106466 -0.0062679662
000330 49 ea 14 bc d3 7e 09 3e 16 39 10 3e 36 c1 8b 3d
       -0.009089061 0.13427286 0.14084277 0.068239614
000340 66 8a 15 3e e0 0f 43 3e 7f 8d 55 3e b1 20 c9 3d
       0.14603576 0.19049025 0.20854758 0.098206885
000350 6f 3d 5c 3d be 9a 2c 3e 3a 5f 6c 3e 78 cd ca 3b
       0.053769525 0.16855904 0.23083201 0.0061890446
000360 84 b5 6a 3e 49 d3 36 3b 99 e4 1c 3e 0b 6c e0 3e
       0.22920805 0.0027896932 0.15321578 0.4383243
000370 08 11 40 3e d3 ac a4 3d 42 98 e1 3c 81 05 51 3e
       0.18756497 0.08040776 0.027538422 0.20412256
000380 e0 05 f1 3e 34 a9 e6 3d 95 db 2b 3e e9 67 47 3e
       0.47074795 0.11262742 0.16782983 0.19473232
000390 ad a7 53 bc 19 5c e5 3d c0 52 5e 3e fd 37 1b 3e
       -0.012918395 0.11199207 0.21711254 0.15158077
0003a0 7a 76 d9 3d 13 8d 55 3d ec 27 1b 3e 72 ab 7b 3c
       0.10618301 0.052136492 0.15151948 0.0153607
0003b0 da 45 2d 3d 9a 8a a5 3d d3 fd 3d 3e 48 60 8a 3d
       0.042302944 0.08083077 0.18553858 0.067566454
0003c0 cb 31 ba 3b 44 40 75 bd c2 86 0f 3e 9a d9 b1 3d
       0.0056822053 -0.05987574 0.1401625 0.08684082
0003d0 ef 80 02 3f 4f b7 05 3e 6f a5 21 3e 15 43 1e 3e
       0.5097799 0.13058208 0.15785764 0.15455277
0003e0 b2 1c 32 bd 74 f7 bd bc 8a a0 dd 3d c0 75 10 3d
       -0.043484397 -0.023189284 0.10821636 0.035268545
0003f0 74 b5 15 3d a8 e4 8d 3d 1f 10 48 3e 4d 2e ef 3b
       0.03655 0.06928378 0.195374 0.0072992207

net.4.bias f4 [5]
000000 0f 49 3a bc ff f8 83 bd c8 6a 02 3d fa 8e 5a bd
       -0.011369958 -0.064439766 0.031840116 -0.05335901
000010 2b d4 83 bd
       -0.06436952
