outputs/lv.pt (torch, 23205 bytes, 6 tensors)

net.0.weight f4 [64, 9]
000000 14 07 7d be be 33 34 be e6 85 93 bd 8e 6f a0 3e
       -0.24709731 -0.17597863 -0.072032735 0.3133511
000010 8e 40 1b bd 38 62 49 be 36 06 6a 3f df b3 4f 3f
       -0.03790336 -0.19666374 0.9141573 0.81133837
000020 56 76 b7 3e 11 aa 88 bd 13 a3 12 bd d4 ca 41 bc
       0.3583247 -0.066730626 -0.03580005 -0.011828143
000030 eb b0 b4 3d 0a 36 20 bc 4d e6 6c bd 56 9e 8f bf
       0.08822807 -0.009778509 -0.05783682 -1.1220195
000040 1d 07 12 3f b2 b6 9b be 85 2b 93 be 0d a0 cb be
       0.57042104 -0.30412823 -0.2874414 -0.39770547
000050 ca 1f a6 3c eb 2d ca be f3 94 03 be 2e b5 03 3e
       0.02027883 -0.39488158 -0.12849788 0.12862083
000060 f1 53 29 3d f4 4b 0a be bd 96 51 bd 8c b6 2b be
       0.04133982 -0.13505536 -0.051169146 -0.16768855
000070 47 76 db bb a9 1a 35 bf f5 e1 11 bf c6 03 71 bd
       -0.0066974494 -0.70743805 -0.5698541 -0.05884149
000080 2b e4 48 bd 9e 5e e3 be ce 65 06 3f bf 71 12 be
       -0.049045723 -0.44408125 0.5249909 -0.14301203
000090 6d fd 3f 3d 93 a4 8d bd 0a ca 8d 3d 30 d5 03 bf
       0.046872545 -0.06916156 0.069233015 -0.51497173
0000a0 20 80 41 3a 72 ea 70 bd b4 a6 0d 3e 65 7a 95 3f
       0.0007381458 -0.058817334 0.13833123 1.1677977
0000b0 87 8a 6d bc e3 78 b9 3d 74 73 89 be bd 55 e2 3e
       -0.0144983595 0.090562604 -0.26845896 0.44206038
0000c0 e0 43 10 bf e8 47 b1 3d 47 23 28 bd ae 5a 87 3e
       -0.5635357 0.08656293 -0.041049268 0.2643637
0000d0 1f d5 20 3f 2b e8 79 3e 56 eb 33 be f1 29 c0 bc
       0.62825197 0.24404971 -0.17570242 -0.0234575
0000e0 db a4 89 3e 64 bb f7 3d 3c e6 29 3e 03 36 49 3e
       0.26883587 0.12096289 0.16591734 0.1964951
0000f0 fa f4 1a bf 3a 21 43 3f b0 61 ce be b7 32 82 be
       -0.60530055 0.76222575 -0.40308905 -0.25429317
000100 56 44 7e 3d 8c 6a ee 3e f7 e8 f1 3d 2f 7a 43 be
       0.06207689 0.46565664 0.11812013 -0.19089578
000110 dc 37 34 3d 2f 6a 0d 3f bf dd 99 3e 92 9e 3e bf
       0.043998584 0.5524015 0.3005199 -0.7446071
000120 dc 2a 70 be b8 6c 2e 3d f8 26 ea 3d 5f b4 8d 3e
       -0.2345385 0.04258415 0.11433214 0.27676675
000130 f3 e1 05 be 31 60 e1 3b 15 19 3a bf 00 a5 8a bf
       -0.13074474 0.006877922 -0.7269452 -1.0831604
000140 0c 69 b3 3d 30 bb 3a 3d c5 aa 03 3e 22 9c 8d be
       0.087602705 0.045588672 0.12858112 -0.27658182
000150 7a 9d 02 be 6c f7 1a be 39 ee 1d 3e fd c7 99 bf
       -0.12755385 -0.15133446 0.15422906 -1.2014157
000160 04 02 68 3f 40 31 1d be fa 77 4f 3d e9 cf 90 be
       0.90628076 -0.15350819 0.050651528 -0.28283623
000170 b4 f8 8f 3e 80 2d e5 bc dd 35 26 be 51 d3 e8 3d
       0.28119433 -0.027975798 -0.16231485 0.113684304
000180 05 c5 7e 3e fb 3b 9e 3e fe e5 80 be 3b 55 95 bc
       0.24879844 0.30905136 -0.2517547 -0.018229118
000190 d0 77 ac be af 2f 3a bf 57 20 23 bf 91 a3 c1 3c
       -0.3368516 -0.7272901 -0.6372122 0.023637565
0001a0 4e 6a 75 bb ea a1 2a bf b1 d0 a8 3e da 03 db be
       -0.0037447396 -0.6665331 0.3297172 -0.42776376
0001b0 e4 e1 05 be cb 00 bc 3d 11 8f 55 be fb 02 4f be
       -0.13074452 0.09179839 -0.20855357 -0.2021598
0001c0 10 60 88 bd 9c 31 2f bd b5 33 0d 3f 4e 00 0b 3e
       -0.066589475 -0.04277192 0.55157024 0.13574335
0001d0 65 e0 8f 3e b4 bf 76 be 3f 0d f9 b9 b4 0e 9e be
       0.28100887 -0.24096566 -0.0004750285 -0.30870593
0001e0 b6 24 6a be cb e2 09 3e 52 93 3b 3e 86 29 88 3e
       -0.22865567 0.13465421 0.18317917 0.2659418
0001f0 a6 fb 39 3f ce f6 b4 3e b7 91 2a 3e 66 a1 cc be
       0.7264961 0.35344547 0.16657148 -0.39966887
000200 44 f2 a0 be cf a1 0a 3e 33 7e ab 3d 98 db e3 bd
       -0.31434834 0.13538288 0.0837368 -0.111258686
000210 20 54 0b bf 2f d3 19 3f 83 90 7f 3e 33 b6 2c 3e
       -0.5442524 0.60087866 0.2495747 0.16866378
000220 6b 47 35 3e 98 0e 62 3e 9a eb 4e 3e d1 c3 50 3e
       0.17703025 0.2207588 0.20207062 0.20387198
000230 03 84 84 3d 8b e1 66 3f 0b 2a be bc b9 cb ab 3e
       0.06470492 0.901879 -0.023213407 0.33553866
000240 46 2e 8e 3e 94 98 83 3e 77 1e 52 3e d7 07 b7 be
       0.2776968 0.25702345 0.20519434 -0.3574817
000250 33 3e 48 3e e0 cc 97 3d 19 9a 27 3f 6b e3 84 3f
       0.19554977 0.07412124 0.6546951 1.0381902
000260 77 0b be 3e 2b 59 51 bd 0d 44 85 bc 94 2d 0f be
       0.37118122 -0.051110428 -0.0162678 -0.1398223
000270 24 53 3d 3e 87 38 69 3e 3b 10 ad bd f6 77 75 bf
       0.18488747 0.2277547 -0.08450361 -0.9588617
000280 17 24 54 3f a7 2f 0e be 52 ce c5 bb cd 52 09 3e
       0.8286757 -0.13885365 -0.006036558 0.13410492
000290 86 9d 59 3e a7 2c 0b bd 15 93 44 3d 9f 0a 0a 3e
       0.21251497 -0.03397813 0.04799183 0.13480614
0002a0 d7 d3 4b 3d 81 05 32 bf 49 15 bd bd 3e dc 9c bd
       0.049762573 -0.6953965 -0.092325754 -0.07659195
0002b0 9c 4b 5d 3e bd 09 f8 bd cb 30 9f 3d a0 d2 d6 be
       0.21610874 -0.121112324 0.077729784 -0.4195757
0002c0 b5 48 e3 3d 99 0c 52 3e e7 78 00 3f 44 82 be bd
       0.11097852 0.20512618 0.5018448 -0.0930219
0002d0 3b 81 e2 bd 7c 25 5e 3e 6d cc 07 3e 5d 3e b6 be
       -0.11059805 0.21693987 0.13261576 -0.35594454
0002e0 c0 79 eb bc ee b6 cf 3d f0 a9 4e 3f 78 45 71 3f
       -0.028744578 0.10142313 0.80728054 0.94246626
0002f0 f3 ef ab 3e 2b 0c 45 be c6 da 4b bd fd 87 09 be
       0.33581504 -0.19242923 -0.049769185 -0.13430782
000300 d8 c6 79 be 8f 9c d2 bd 48 9d bc bd d2 95 b9 bf
       -0.24392259 -0.102837674 -0.092096865 -1.4498847
000310 f2 b0 2d 3f 63 ec 22 3e 62 99 f0 3d d1 d4 e7 bc
       0.6784812 0.15910487 0.117480054 -0.028299721
000320 3e 94 76 be 1e 2d e0 3d 67 36 7f 3d 7d 89 b7 bd
       -0.24079987 0.109461054 0.06230774 -0.08961771
000330 96 9e c2 3e 47 30 07 3f 27 a4 f9 3e 56 cb d2 3d
       0.38011616 0.5280804 0.4875805 0.102926895
000340 97 8e b9 bc 61 fb fa bd 1f 0d c8 3d 4d 23 27 3d
       -0.022651 -0.12254978 0.09768128 0.04080515
000350 60 f5 1f bd 4d 08 a5 bf b0 20 38 3f e2 96 a0 be
       -0.039052367 -1.2893158 0.7192488 -0.31365114
000360 e2 be 6b bd f1 db d6 3d e4 05 3e 3c ef a3 28 3d
       -0.057555087 0.10491169 0.011598084 0.041171964
000370 7d 10 37 bd a8 09 a5 bc 28 2c 2c 3f 21 c4 e4 3e
       -0.04469346 -0.020146206 0.6725488 0.44680884
000380 c7 46 08 3d 2b ce 17 3d 08 5b 1b bd 3c 31 a7 3e
       0.033270624 0.03706185 -0.03792861 0.3265475
000390 c6 68 02 bf d3 06 00 3d 00 41 60 3e 16 1d f1 3e
       -0.5094112 0.031256508 0.21899796 0.47092503
0003a0 3d 2f de 3e f8 af 88 3e e7 84 90 bd ce 24 92 3e
       0.43395415 0.26696754 -0.07056599 0.28543705
0003b0 87 a8 7c be f4 f3 34 3c 07 53 8a 3e 42 c7 17 3e
       -0.24673663 0.011044491 0.2701647 0.14822105
0003c0 ee c7 ab 3e c0 6d 5d 3d e4 14 83 be 66 bf ad be
       0.33550972 0.054059744 -0.25601876 -0.33935088
0003d0 35 1a 26 3e 64 dc 8a bd 80 18 03 bd 82 97 0e 3e
       0.16220935 -0.067803174 -0.032005787 0.13924983
0003e0 44 4a 01 3e 7f 12 5d 3f 6e 82 e4 3e df 80 c8 3e
       0.12625986 0.8635635 0.4463076 0.3916082
0003f0 40 a2 e9 3d 87 39 2a be 54 fe f5 3e 96 e7 c8 bd
       0.114079 -0.16623507 0.480456 -0.098097965

net.0.bias f4 [64]
000000 34 74 69 be 49 64 2b be a5 5a ad 3e 39 c7 0a 3f
       -0.22798234 -0.16737475 0.3385822 0.5421024
000010 ca c7 41 3e 01 3d 74 3e a2 92 84 be 15 92 8c 3e
       0.1892387 0.23851396 -0.25893122 0.27455202
000020 56 d1 03 be f9 54 f4 3e 2e a0 0b 3e 9f 48 86 3e
       -0.12872824 0.4772108 0.13635322 0.2622728
000030 2b c7 e9 be 49 d7 70 be c9 7d 9a 3e 46 64 6e 3d
       -0.45659766 -0.23519625 0.3017409 0.058201097
000040 be c8 7e bd 53 f1 df 3d bf 40 3a be 31 8d 4f 3e
       -0.06220316 0.10934701 -0.18188761 0.20268704
000050 3f 2e 04 be b7 e8 cb 3e 54 23 04 3e e5 94 25 be
       -0.12908266 0.39825985 0.12904102 -0.1617008
000060 f9 3b 7c 3e b8 0a 50 3e 30 ff f3 3e 37 d8 70 bd
       0.24632253 0.20316589 0.4765563 -0.05879995
000070 37 4d 8f 3e e1 db 1d 3e a8 0c 01 bf 1f 4c 5d 3d
       0.27988598 0.15415908 -0.50409937 0.054027673
000080 71 20 c8 bd 93 4c 72 3e d3 40 90 be f2 e2 c8 3e
       -0.09771813 0.23662023 -0.28174457 0.39235646
000090 31 a4 3a be c5 27 bb 3e 78 1a 8a 3d 2b 5b ab 3c
       -0.18226697 0.3655378 0.0674333 0.020917496
0000a0 ed b3 df 3e 80 58 0e bf 79 21 9c bc ca fa 12 be
       0.4369196 -0.5560379 -0.01905893 -0.14353481
0000b0 45 f5 f6 3e f4 44 9f 3e 63 e7 c7 3e 8d ff 60 3e
       0.48234 0.31107295 0.39043722 0.21972485
0000c0 5a 11 79 be 3f 15 9b 3e 40 20 0e 3f c8 28 23 3d
       -0.24323025 0.30289647 0.5551796 0.039833814
0000d0 31 48 4a 3f 33 df ec 3d b1 47 79 3e 38 24 93 be
       0.79016405 0.11566009 0.24343754 -0.2873857
0000e0 c2 6e cc 3e 4c c1 99 3e ee b4 13 bd f6 0b 43 3e
       0.39928252 0.30030286 -0.03606122 0.19047531
0000f0 b9 b7 bb 3e 02 f3 2b 3c 51 4f 96 3e 48 80 ef bc
       0.36663607 0.010494949 0.2935739 -0.029235974

net.2.weight f4 [64, 64]
000000 85 f2 16 3e f4 49 1d bc 12 f0 ad bc bb 18 2c 3e
       0.14740951 -0.009600151 -0.021232639 0.16806309
000010 04 84 f4 be 70 f1 05 be 0c 66 4a 3c 32 55 1d 3e
       -0.4775697 -0.13080382 0.012353431 0.1536453
000020 cf 2e 27 be 0e 80 25 bd 2b 90 82 bc b0 74 92 3d
       -0.1632645 -0.040405326 -0.015937885 0.071511626
000030 2d 77 54 3e 19 30 5c 3e 78 ed a3 bd 4c 0c 15 3e
       0.20748587 0.21502723 -0.08004278 0.14555472
000040 7f 57 f0 3d 8b cb fb bc 86 44 e7 bd b8 f0 14 3e
       0.117354386 -0.030736705 -0.11292367 0.14544952
000050 44 12 8d bd 2e 30 d7 be 52 fb 0f 3e a5 14 5b 3e
       -0.068882495 -0.42028946 0.14060715 0.21394594
000060 d6 53 be 3c f1 45 05 be bf ca 26 3e 6d 98 99 3c
       0.023233335 -0.13014962 0.16288279 0.01874944
000070 c3 05 26 be 12 5d 8a 3a 9a cf 19 3e 40 d6 65 3d
       -0.16213135 0.0010556302 0.150206 0.056112528
000080 19 e2 5d 3d 81 45 a7 bb 12 42 2a 3d a6 02 17 3e
       0.0541707 -0.005104721 0.041566916 0.14747104
000090 8b bb 72 3e 06 2f 25 3d 3a 90 80 bd d1 6a 61 3d
       0.23704354 0.04032805 -0.06277509 0.05503351
0000a0 57 bb 46 3d 7b fc 8d 3e 4e 79 9f bd 56 14 fc 3d
       0.048518505 0.2773169 -0.07786809 0.12308566
0000b0 cd f1 98 bc 9a f0 16 3d cc 83 47 3d 22 f7 54 bc
       -0.018669987 0.03685055 0.048709676 -0.012998374
0000c0 cb 39 a6 bc a1 b1 c5 3d a6 ac a2 be a2 cf 86 be
       -0.02029123 0.09653021 -0.31772345 -0.26330286
0000d0 e8 e7 0e 3e 0c 73 3f be 6a b7 e1 3d 71 6e 34 bc
       0.13955653 -0.1869623 0.110213116 -0.011012659
0000e0 48 75 8b bd b4 78 d4 bd 70 0d a7 3e ba db 7a be
       -0.06809479 -0.10374585 0.3262744 -0.24497882
0000f0 fd ba 29 bd 78 7c c5 3d 59 8e 18 3e 0c 62 1f 3d
       -0.04143809 0.09642881 0.14898051 0.038911864
000100 cb 11 fe 3d 51 51 0b 3e c3 be ac bd c3 e9 b7 be
       0.124057375 0.13605238 -0.084348224 -0.35920534
000110 16 ba 8a bd ed 9f 30 3e 60 f1 d0 3d c3 34 55 bd
       -0.06773774 0.17248507 0.10202289 -0.05205227
000120 db 46 4c 3d af 8b 34 3c 1a 1a 24 3d ff 1e 17 bf
       0.04987226 0.011019631 0.040063955 -0.5903167
000130 6e 5c fc bd 93 ec 9a bc d4 93 c6 3d d5 86 6e 3c
       -0.12322317 -0.018911636 0.09696165 0.014558514
000140 74 41 b6 3d 6e 8b 05 3e 0b 53 8a 3d 28 27 81 bd
       0.08899203 0.1304147 0.067541204 -0.063062966
000150 21 a9 29 3e f6 05 9b be 2f 94 4d 3d 94 d8 ab 3e
       0.16568424 -0.30277985 0.050190147 0.33563673
000160 ce 7c 78 3d c7 ee 56 3e 8e 40 bc bc 68 0e 97 3d
       0.060665898 0.20989524 -0.02298 0.07375795
000170 13 bf 23 3e c8 87 71 3d 2b 44 a1 3d 7f c6 85 bc
       0.15990858 0.05896738 0.0787433 -0.016330002
000180 e9 40 02 be e9 dd c9 3d 9c 6b 43 3c a8 cb 8e 3d
       -0.12720074 0.09856779 0.011927512 0.06972438
000190 27 7c 8b 3d e5 2a 1d 3e 29 e7 b3 3d b4 bb 76 3e
       0.068107896 0.15348394 0.08784325 0.2409504
0001a0 0b d5 4c 3e 0a 97 68 bd db 9c 2b be 21 54 0f 3e
       0.20003144 -0.056784667 -0.16759054 0.13996936
0001b0 92 a9 16 be d9 49 ca 3c 61 a8 82 bc da b6 ac 3c
       -0.14713123 0.024693416 -0.01594943 0.021083284
0001c0 bd d3 84 3d d1 59 e5 bd f7 45 06 3f 0e 93 66 be
       0.06485698 -0.11198772 0.5245051 -0.22517034
0001d0 79 75 c4 be 0e 48 bc be 92 e6 a9 bc dc 80 c3 bd
       -0.38370875 -0.36773723 -0.020739827 -0.09546062
0001e0 b8 07 23 bc 25 6d c5 3d 85 da d9 3c 95 c0 8c 3e
       -0.009950571 0.09639958 0.026593456 0.27490678
0001f0 43 ff ea 3d 11 1f ad bd 0a 68 69 3d 7e 3f 79 bc
       0.114744686 -0.08453191 0.056983985 -0.015212892
000200 f3 5d 38 3e e7 08 4d 3e 46 8f c9 bb 90 b1 23 3d
       0.18004589 0.20022927 -0.0061511127 0.03996426
000210 cb f2 ad be 03 c5 c0 bd 1a 6a 2d 3d 43 ef 07 3e
       -0.339743 -0.09412577 0.042337514 0.13274865
000220 d2 ad 92 bd 77 dc 63 3e 5e 55 f9 bb 76 14 3c 3e
       -0.0716206 0.2225207 -0.0076090535 0.1836718
000230 49 04 ba bc e5 9b 20 3d 0b 34 cb bd a6 0f 21 3d
       -0.022707121 0.039211173 -0.09922036 0.039321564
000240 2c 54 91 bc ed 29 26 3d 1e 9c 1b be 69 44 4e bc
       -0.017740332 0.040567327 -0.15196273 -0.012589552
000250 7c 6a 80 3d 59 49 53 3d 04 4f 26 3e f1 1b aa 3e
       0.0627031 0.05158362 0.1624108 0.33224443
000260 81 55 07 bd ad f7 8b bd e5 4f 78 3b 4a b3 13 3e
       -0.033040527 -0.0683435 0.0037889418 0.14423862
000270 e7 3a 25 3e 8a 86 1b 3e 56 25 10 3e 51 e8 f2 3d
       0.1613575 0.15188041 0.14076743 0.11860717
000280 93 0b 96 be 4d d6 11 be 6d 36 64 bc a1 a0 37 3e
       -0.29305705 -0.14241906 -0.013928992 0.17932369
000290 7b f4 f0 3d 4b 14 c3 bc 7f e5 84 be 20 eb 4f 3e
       0.11765381 -0.023813387 -0.25956342 0.20304537
0002a0 1d 79 12 be e2 b4 05 3e eb 71 53 be 06 5b 62 3d
       -0.14304014 0.13057283 -0.20648925 0.055262588
0002b0 53 49 73 3e 54 d7 e4 3d c8 5a e3 3d 8a 83 9f bd
       0.2375844 0.11173883 0.111012995 -0.07788761
0002c0 19 f0 18 3e cb f4 ea bd 7f 5d 03 be 78 c7 d7 bd
       0.1493534 -0.11472472 -0.12828635 -0.105360925
0002d0 86 da 04 3e b5 c7 95 be 8b b1 c7 3d 9b f0 91 3c
       0.12973985 -0.29253927 0.097506605 0.017814925
0002e0 a9 b7 dc bc 9d 17 7a bd 4b 3e c5 3e e6 3b 8e be
       -0.026943045 -0.061057676 0.38524088 -0.27780074
0002f0 4c 05 62 bd 5e 03 ea bd 45 a3 3d 3e 42 ec 21 be
       -0.055180833 -0.114264235 0.18519314 -0.15812781
000300 31 bc 1a 3e d1 c6 82 3d e9 ef d7 3d a4 4f 3b 3e
       0.15110852 0.063855775 0.10543806 0.18292099
000310 76 d6 d0 be c6 d3 2f be b4 b3 80 bd 77 92 40 3e
       -0.4078862 -0.17170629 -0.06284276 0.18805872
000320 37 be 45 be 14 13 00 3e 5a 39 14 be e5 16 b4 3e
       -0.19310842 0.12507278 -0.14475003 0.35173717
000330 fd 89 f4 3c 71 42 d0 3d cd c5 0a 3e a0 39 a4 3d
       0.029850954 0.10168923 0.13552018 0.080188036
000340 cc d0 9a 3c 2e 5b ee 3d 4d 0d 02 bc 64 7d 9e bd
       0.01889839 0.11638485 -0.0079377415 -0.0773876
000350 77 44 96 3d fd 5f 22 3d 72 13 06 3e f3 db fe 3d
       0.073372774 0.039642323 0.13093355 0.12444296
000360 5a 2c 95 3d 99 74 5d bd fc 3f 11 3e 92 09 07 3e
       0.0728385 -0.054066274 0.14184564 0.13187245
000370 2b 35 d2 bd df fd 96 3d dc bb ab 3d 72 f2 81 3c
       -0.10264047 0.07372641 0.08385441 0.015862677
000380 c1 67 2c be c6 b3 1c 3d c0 d1 ab bc b7 11 e0 bc
       -0.16836454 0.038257383 -0.02097404 -0.027352197
000390 fb 7e 60 3e 81 8d 59 bd ac 39 19 be b7 fc f4 3d
       0.21923439 -0.053113464 -0.14963406 0.11962264
0003a0 09 a5 05 3e c7 74 8c 3e c6 95 ef bd 49 c0 fc bc
       0.13051237 0.27432844 -0.11698489 -0.030853407
0003b0 57 32 e5 3d 78 6f 44 3d c9 96 fa 3d 5d e0 80 3d
       0.11191242 0.047957867 0.12235791 0.06292794
0003c0 d0 ec 2c 3e 86 02 29 3d 3b 1c b3 be 5a 29 11 bd
       0.16887212 0.041262172 -0.34982476 -0.035439827
0003d0 1e 20 2a 3e d6 b8 69 bc fb b9 ea 3d bc 38 39 bd
       0.16613814 -0.01426526 0.11461254 -0.04522012
0003e0 d6 51 cc 3d e0 04 23 3d aa 6d 2d 3e ae 81 a8 bd
       0.099765465 0.03979957 0.16936365 -0.082278594
0003f0 c2 5f 5e bd 93 a7 c1 bd dd b4 e6 3c d0 f4 f4 bd
       -0.05429054 -0.0945579 0.028162414 -0.11960757

net.2.bias f4 [64]
000000 4f 27 52 bc db 5d f9 3d 2e b3 07 3d 12 a9 89 3e
       -0.012826755 0.12176105 0.033129863 0.26886803
000010 40 39 8c bc 88 f2 d8 bd 77 e0 94 3d 35 58 03 3e
       -0.017117143 -0.10593134 0.07269376 0.12826617
000020 bf 8b d2 3d b4 1b 89 bd ba 14 12 3e c9 2f 54 3d
       0.10280561 -0.06694737 0.14265719 0.051803384
000030 56 60 07 3e b3 6e 4b 3e 3c d5 fb 3b a5 65 1b 3d
       0.13220343 0.19866447 0.0076853316 0.037938733
000040 02 fe 09 be bf 59 6a 3e 93 9d 6b 3d 5c b4 65 3e
       -0.13475803 0.22885798 0.05752332 0.22432083
000050 63 ac 93 3e 52 da 9c 3d e5 51 17 3e 6c 66 e6 bd
       0.28842458 0.07658829 0.14777334 -0.11250004
000060 82 7b f4 bd e3 4f e0 3d af 68 00 3e b1 e6 32 3e
       -0.1193762 0.10952737 0.12539934 0.17470814
000070 3a 15 08 3e c6 c7 07 bd 6d de 81 be ff 1a ad 3d
       0.13289347 -0.033149503 -0.2536501 0.08452415
000080 f0 02 68 bd db 45 a0 bc 66 f0 00 be e4 3c 37 bd
       -0.056643426 -0.01956456 -0.12591705 -0.044735804
000090 79 7a 39 bd c7 54 66 3e 8f 1e 2c bd 4b 95 2d 3e
       -0.045282815 0.22493277 -0.04202133 0.16951482
0000a0 9c 21 f5 bb f2 f6 14 3c 1a 95 e7 3d 2c 7f 20 3d
       -0.007480813 0.0090920795 0.11307736 0.03918378
0000b0 ec 09 18 3e f6 0f 70 3c 55 a1 4c 3e b0 97 b7 bc
       0.14847535 0.014652243 0.19983418 -0.022411197
0000c0 3e 83 e2 bc 25 9d 6c bc 6f d0 20 3d b1 19 38 3c
       -0.027650472 -0.014441763 0.039261278 0.011236594
0000d0 b3 6c 71 bd cb 2f e8 bc b0 55 1e 3e de 95 a1 bd
       -0.058941554 -0.028343102 0.15462375 -0.07889913
0000e0 8f 65 2c 3e 35 c3 0c 3e 58 cf 09 3d a4 30 23 bc
       0.16835617 0.1374634 0.033645004 -0.009960327
0000f0 a7 76 b8 3d 74 6b 13 3e b5 71 68 3e 52 f9 a0 bb
       0.09007006 0.14396459 0.22699626 -0.004912534

net.4.weight f4 [5, 64]
000000 93 07 e4 bd 19 71 48 3e 81 19 99 bd 70 e4 75 be
       -0.11134257 0.19574393 -0.074755676 -0.24012923
000010 4c 63 51 3d e1 67 70 3e 68 d5 73 3b d3 b2 7e be
       0.051120088 0.23477127 0.0037206057 -0.24872904
000020 1f d2 92 3c c0 89 78 3e af 1a 39 be f6 df 67 be
       0.01792246 0.24271297 -0.18076585 -0.22644028
000030 12 be 29 bb af 6e f4 bd 9f ca d1 3d 55 45 12 bc
       -0.0025900644 -0.11935174 0.10243725 -0.008927663
000040 7a c2 9c 3e d2 f2 92 be bc 24 82 3e 16 c5 84 be
       0.30617124 -0.28700882 0.2541865 -0.25931615
000050 c7 e9 08 bf 97 ae 95 bd 48 fc b2 3e 2c 15 28 3e
       -0.53481716 -0.07308691 0.349581 0.16414326
000060 30 09 8a 3e 00 d1 44 3e 38 80 f9 3c f6 32 46 3d
       0.26960135 0.19220352 0.030456647 0.048388444
000070 b2 ea 34 bd f6 7b 38 be 21 31 1b 3e e4 49 0a be
       -0.044169135 -0.18016037 0.1515546 -0.1350475
000080 92 6d 46 3d af 99 e8 3d 5b cc 4c 3e 1e 55 79 3e
       0.04844434 0.11357438 0.1999983 0.24348876
000090 f7 70 3c 3e ca 07 6e be 36 4f d9 3e 13 8d 6e be
       0.18402468 -0.23245159 0.42443246 -0.23296003
0000a0 11 b3 59 be da 7b 51 3d d8 3d b1 3d 9c 77 3a be
       -0.21259715 0.051143505 0.08654374 -0.1820969
0000b0 79 db 2b bd 76 46 80 3e 28 d2 a7 3e 7f 49 1f 3e
       -0.041957352 0.25053757 0.32777524 0.1555538
0000c0 7a ac 22 be 65 34 35 bd 27 90 1d 3e 2a 33 da be
       -0.15886107 -0.04423942 0.15387021 -0.4261716
0000d0 5d d3 0e 3f 35 fa 19 3d 91 c9 15 3f 1d db 30 3f
       0.55791265 0.03759213 0.5851069 0.6908434
0000e0 4e e8 71 be a2 19 59 be d1 42 45 be ee 86 aa be
       -0.23623773 -0.21201184 -0.1926377 -0.33306068
0000f0 16 34 62 3e 7b 6a ff bc 10 cb 6f bd 94 a8 76 3e
       0.22090182 -0.031178704 -0.058543265 0.24087745
000100 f3 6f 3e 3e f1 54 0c 3e 37 fe ce 3e d6 35 be 3e
       0.18597393 0.13704278 0.40428326 0.3715045
000110 0d 42 ce 3d 55 56 2e 3c d2 17 9e 3e 52 2c 8c 3e
       0.10071192 0.0106407 0.30877548 0.27377564
000120 20 13 8a 3e 68 61 d7 3e 9a 28 98 3e 89 02 32 3d
       0.26967716 0.42066503 0.29718477 0.04345945
000130 4d 08 f2 3d bd 81 b1 3e 74 b1 dd be 68 93 4b be
       0.118179895 0.34669295 -0.43299448 -0.1988045
000140 ea 99 0d bd a1 44 67 be 3b 29 c3 be 27 c7 85 be
       -0.034570612 -0.22584774 -0.38117394 -0.26128504
000150 54 23 03 be 19 6f ae 3c f8 a0 71 be 07 f0 b7 3d
       -0.12806445 0.02129321 -0.23596561 0.089813285
000160 d1 09 05 3f 92 1d a7 3d d0 8e 39 3d 11 39 c2 3e
       0.51968104 0.08159937 0.045302212 0.37934163
000170 f0 aa 7c bd f3 98 47 be 9c a7 b8 be bb ab 40 be
       -0.061686456 -0.19491939 -0.36065376 -0.1881551
000180 a8 1c 65 3e 06 36 51 3e 49 a7 2c 3e 80 04 0a be
       0.22374213 0.20430765 0.16860689 -0.13478279
000190 88 73 b5 be 1a e6 13 3e f2 4f 26 be 8a 00 86 be
       -0.35439706 0.14443246 -0.16241434 -0.26172286
0001a0 3e 4c 49 3f 2e 3a 34 3f d1 a8 58 3e bc 02 a4 be
       0.7863196 0.70401275 0.21158148 -0.32033336
0001b0 f6 d2 8c 3e ad d5 bd 3e 82 2d a9 be c8 23 f1 be
       0.275047 0.37077084 -0.33042532 -0.4709761
0001c0 94 64 57 be 22 19 ef bd db 68 1c 3e e9 ba f4 bd
       -0.21034461 -0.116747156 0.15274374 -0.11949713
0001d0 fd d9 a6 be 63 a5 34 bf 04 36 1b 3f 77 23 b9 be
       -0.32588187 -0.7056486 0.60629296 -0.3615987
0001e0 97 ca c3 3e 36 db 40 be 95 36 3e be bb 09 a7 be
       0.382405 -0.18833622 -0.18575509 -0.3262461
0001f0 5e d7 88 be 46 99 66 3e d3 7a e4 3d 9f 5e d4 3d
       -0.26726812 0.22519407 0.11156239 0.1036961
000200 dc 3d 06 3e 84 35 c4 3c 6e fc e9 bc a9 ff 77 bd
       0.13109535 0.0239513 -0.02856275 -0.06054655
000210 38 39 06 3d e9 21 ba 3d 9c 57 2a bd 4c bb a9 3d
       0.03276941 0.09088499 -0.041587457 0.08287677
000220 ae 91 0a 3e b4 93 77 3a f4 96 67 3d 3d 59 d2 3c
       0.13532135 0.0009444312 0.056540444 0.025677318
000230 8e b5 ad bc e6 87 41 3b 98 6f 35 3d 40 ff 98 3c
       -0.021204736 0.0029530465 0.044295877 0.0186764
000240 4e 7f 16 3e cd 9e f5 bd a1 2e de bd 85 27 40 be
       0.14697 -0.119931795 -0.108487375 -0.18765076
000250 92 b5 04 be 02 14 53 3d 82 78 a0 bd 42 82 79 be
       -0.12959889 0.051532753 -0.07835485 -0.24366096
000260 bb 59 d0 bc 66 71 be 3c df 2e 4b 3c 5d c3 b0 bd
       -0.025433412 0.023247432 0.012401312 -0.086310126
000270 15 cb 57 3d 73 b5 f5 3d 5a b4 83 bd b7 25 ce bd
       0.05268391 0.11997499 -0.06430884 -0.10065787
000280 4d d4 84 3c 55 dc db 3d c4 a6 81 3e 3e ad 03 3d
       0.016214514 0.107353844 0.25322545 0.03214764
000290 af b0 fd bd e1 c3 d1 bd c7 8f bf 3e 5a bb 27 be
       -0.12387215 -0.10242439 0.3741438 -0.16380063
0002a0 59 ac 70 bc 16 0c 18 3e 80 37 90 3d 54 e5 01 be
       -0.014689528 0.1484836 0.07041836 -0.12685138
0002b0 44 5e e5 3d 8c ee d0 3b c8 97 24 be d4 70 0b be
       0.1119962 0.0063760933 -0.16073525 -0.1361726
0002c0 91 81 26 3d 56 ea 32 3e 94 a0 33 3d 10 4c 03 3e
       0.040650908 0.17472205 0.04385431 0.12821984
0002d0 08 31 bb bd b7 d0 32 be 16 7d b3 bd cc 60 f5 bd
       -0.09140211 -0.17462431 -0.087640926 -0.11981353
0002e0 21 97 5f bd 45 0f e9 3d cc a8 9f bd 72 c7 e4 3d
       -0.054587487 0.113798656 -0.07795867 0.11170854
0002f0 03 54 a3 bd ec e3 2c bc 54 55 4b bd 03 3a f2 3d
       -0.07975008 -0.010552388 -0.049641922 0.11827471
000300 93 a6 d9 3d 9b 1e 82 3e e4 fb 6f bd d6 3e 20 3d
       0.10627475 0.25413975 -0.05858983 0.039122425
000310 dd d4 e0 3c 7a 66 57 3d 61 bd 15 3e 2b 67 25 3e
       0.027445251 0.052587964 0.14623024 0.16152637
000320 ee 3b 44 3e 03 ff 00 3e c3 75 db 3d 5a da de 3b
       0.19163486 0.12597279 0.10715821 0.006800932
000330 12 af 4d 3e 43 7f 41 bd cb 7f 43 3e c5 ce 36 3e
       0.20086315 -0.047240507 0.19091718 0.17852314
000340 df 6e 15 bd 25 95 89 3e 44 31 13 3d b5 eb a2 3d
       -0.036482688 0.268716 0.035935655 0.07955114
000350 40 95 15 3e 0e df 61 bc 36 8f 84 3d 50 ca b2 3d
       0.14607716 -0.013786091 0.06472628 0.08729994
000360 71 6c c0 3d ce 07 34 3e ed 51 40 3e 0f 44 e4 bc
       0.093956836 0.17581102 0.18781252 -0.027864484
000370 bb 45 28 3e a3 c4 02 3e 12 e0 fe 3d 6d 46 34 3e
       0.1643285 0.12770323 0.12445082 0.1760499
000380 5e 33 d8 3c 65 b9 d1 3d 8f ce 99 3d 90 87 39 3d
       0.026391681 0.10240439 0.07510101 0.045295298
000390 ef e2 3f 3c aa 93 92 bb 70 27 1d 3e 91 8e 51 3c
       0.01171182 -0.0044731693 0.15347075 0.012790338
0003a0 73 ef b9 bc 3c b2 70 3d 9d 0f 5e 3d e9 9f 50 3e
       -0.022697186 0.058763728 0.05421411 0.20373501
0003b0 ce 42 02 3e 79 ad f8 3d af 43 1b 3d 46 65 13 3f
       0.12720796 0.12142462 0.037906345 0.57576406
0003c0 59 7c 4d 3e fe a4 0f 3e 5e 81 82 3c e3 b2 1f 3e
       0.20066966 0.14027783 0.015930828 0.15595584
0003d0 a5 0d 33 3d 57 a2 f2 3e ab a4 65 3d ae 25 3c 3e
       0.043714184 0.4738948 0.056065243 0.18373749
0003e0 0e 0c 7f 3d e0 74 3e 3e fe d1 80 3e 7a 68 92 3e
       0.062267356 0.18599272 0.2516021 0.28595334
0003f0 9c 62 0f 3e 3e 3a 30 3e 37 25 9d 3e 65 cd 4d 3e
       0.1400246 0.17209718 0.30692455 0.20097883

net.4.bias f4 [5]
000000 7f c3 c7 3c 19 1e ad bd b0 96 14 be c5 3f b5 3d
       0.024385212 -0.08453006 -0.14510608 0.08850054
000010 6e 24 22 be
       -0.1583421
