outputs/srt.pt (torch, 22437 bytes, 6 tensors)

net.0.weight f4 [64, 9]
00000000: 5920 8a3d 9d3a 47be 2da7 503e f4c4 8e3e
00000010: 3ddd e039 de5b 9fbc 725a f33e 05bd 203e
00000020: 8af9 5f3e 00bb f1bc 091d 8c3d 2f4e 553c
00000030: 71a0 c63d 4820 ed3d 9eae 5d3d 66f7 d23d
00000040: 7353 163f f5fc 113e b530 e83d d823 93bd
00000050: 75a3 2fbe 6a1c 403e 24ed 4fbd 01ff b13d
00000060: aac5 adbe cf6a 123f 3573 e1bd f239 82be
00000070: 728f 313e 622c abbe ccc3 c63d 1cbf 0f3e
00000080: 0108 6b3e d377 f8be f7bc 1e3f 8c22 fcbd
00000090: 9f11 f2bd 679c ecbd f3a2 9e3e f8ce 4d3e
000000a0: b822 663e 7363 853d 90a5 0a3f 2bbc b43d
000000b0: 8c32 6e3d 7a9d 21be da87 a13e 691b aebd
000000c0: 1c8e 11be fce3 15bc 625d 41be 7f82 9bbd
000000d0: fea2 a63c 198e a2be b012 993b 3dcf 2dbe
000000e0: 487b 8f3e 00b8 26bf c8cf d43c 2113 893d
000000f0: aa2a 443e a8cc ba3e 1d0d a43e 06da 6b3e
00000100: aaab 06be 374c 0abe 7895 7d3e fd2c 913e
00000110: 5164 d13c 26ab a9bd 05f4 bfbe 44d5 a0be
00000120: 6cb7 10bd 83b2 213d fea8 93be 41cc a73e
00000130: a5ba 893e 201f 62bb 367a ec3e d476 f73e
00000140: 0134 863e 006d 86be 4e50 633e d602 bbbe
00000150: 91bb be3d 66ea 333e e8da b13e 9bb4 adbe
00000160: 35f4 cd3c 1ac6 aabe 58bb 31be 5699 bfbd
00000170: 6f6b f93d f050 8a3c 0f03 c4be 648a 383e
00000180: 296e ff3e 221b db3e d640 cabd abbe 80bb
00000190: c87a bb3d 5fdb 713e 1c18 6abd 29d0 583e
000001a0: 92a0 183e cb14 04bf 0826 cc3d 82a8 89be
000001b0: 1407 a73e c013 b8bd 0a70 e3bc 7d5d 093e
000001c0: 4c00 363e f6da c33d 692a 423e e107 163f
000001d0: 838c 343e 171f 8cbe f0da 993d e258 afbe
000001e0: dd65 39be 034d 843e 01c3 bf3d 0a8c 0abf
000001f0: 7805 a8be e67a b03d e9e2 013d 7624 fabd
00000200: 2eff a93e 2a21 12bf 9670 b4bb ced0 3bbb
00000210: 7823 123f 2bd4 ff3e bd09 86be efa8 d93d
00000220: f5ad 2e3e e37e a53e 6c53 1abe e7c7 953e
00000230: ad9f 72be 86b8 283e f267 793e 2782 7fbc
00000240: 1f1b 1dbe 58c5 d03c 5146 72be 4131 3a3e
00000250: 7dce b83c d8ca a0bc e8a8 cb3e 8d61 173f
00000260: 46ed 9bbd 6c53 50bc d447 11bd e069 9f3e
00000270: fdb6 503e 0521 5a3e afab 843e b2df 61be
00000280: 32d7 17bf f038 5c3e 6284 93be 2b15 3f3d
00000290: 176f d1be 5892 773d 5514 6bbe 7050 a6bd
000002a0: 10d6 c0be 499c 983e 9ac3 873d f1f3 833c
000002b0: 07ce c43d ca2b 6e3e fb82 4cbd 72b6 7ebe
000002c0: a01b 993e dae8 e4be a14b 30bf 056a ad3e
000002d0: 233e 01be 894f 65be 88e6 543e e93c 32bf
000002e0: 0183 963d 585d 073e bcff e33e d06d fa3e
000002f0: a802 043e d585 52be a7c6 66be 4350 79be
00000300: f2b3 6d3e 4a32 943e e320 403e f92d d13e
00000310: 3a91 9d3e aedc 8b3e 29b7 47be a77e 1c3e
00000320: f09a b83e 38d4 c1bd 04ae 9b3e 10b2 5ebd
00000330: f40e 763e f852 473e f593 7d3e e3ca d7bc
00000340: fe87 883d 9fcf ae3e 2da2 563e 152c 2d3e
00000350: 835d a7bc 47ab a0be 449f f4be f6e8 213e
00000360: eeff a83e 3dda 493e ef14 97bd f1cf 0bbd
00000370: 1dd2 963e c383 50bd 81ef 63be 3cef b4be
00000380: b2a2 aabc c991 66be e3f7 1d3e b67a b2be
00000390: c1a9 883e fd76 7a3e c5e6 d3bd 00cf bcbe
000003a0: 8e81 81be 036f 7e3e fead e7bd 6ab6 703e
000003b0: 8ea2 a33d 0ea1 9a3d a61f e43d 2146 2b3d
000003c0: d8c8 44be 2348 1cbf 49a2 dd3e b74d 80be
000003d0: 2b89 09be df09 12bd 6863 4c3e 69ba 97be
000003e0: 52bd 543c c727 0fbf fbe9 993e f84b cfbd
000003f0: 5d1e 88be 6b24 babe 82d8 40be 1089 cdbe
0.06744451 -0.19455953 0.20376272 0.27884638 0.00042889445 -0.019452985 0.47529942 0.15697105
0.21872535 -0.029508114 0.068414755 0.013019129 0.096985705 0.11578423 0.054121606 0.10301094
0.58721083 0.14256652 0.11337415 -0.07184571 -0.17152198 0.18760839 -0.050763264 0.08691216
-0.33939868 0.57194227 -0.11008302 -0.25434834 0.17339876 -0.334323 0.09705314 0.14037746
0.22952272 -0.4852892 0.6200709 -0.12311277 -0.11819767 -0.11553269 0.30983695 0.20098484
0.22474182 0.06513109 0.5415888 0.08824953 0.058153674 -0.15782729 0.3154896 -0.08501322
-0.14214367 -0.009148594 -0.18883279 -0.075932495 0.020341393 -0.31749037 0.004671417 -0.16973586
0.28023744 -0.6512451 0.025977984 0.06693102 0.191569 0.36484265 0.32041255 0.23032388
-0.13151422 -0.13505636 0.24764049 0.28354636 0.02556053 -0.08284597 -0.3749086 -0.3141271
-0.035331175 0.039476883 -0.28839868 0.3277302 0.2690021 -0.0034503415 0.4618699 0.48332846
0.2621155 -0.26255035 0.22198603 -0.365256 0.09313119 0.17569885 0.34737325 -0.33926854
0.025140861 -0.33354264 -0.17356622 -0.093554184 0.121786945 0.016884297 -0.38283584 0.18021542
0.49888733 0.42794138 -0.09875648 -0.0039289794 0.09154278 0.2361884 -0.0571519 0.21173157
0.14905003 -0.5159423 0.099681914 -0.26886374 0.32622588 -0.08988142 -0.027763385 0.13414569
0.17773551 0.09563248 0.1896149 0.5860577 0.17631726 -0.2736747 0.07512462 -0.342475
-0.18105264 0.25840005 0.09363366 -0.5411993 -0.32816672 0.08617191 0.03171054 -0.122139856
0.332025 -0.57081854 -0.0055065854 -0.0028658393 0.5708537 0.4996656 -0.26179305 0.10627925
0.17058547 0.3232337 -0.15070885 0.29254076 -0.23693724 0.1647664 0.24356058 -0.015594996
-0.15342377 0.025484726 -0.23659636 0.18182851 0.022559399 -0.019627973 0.39777303 0.59133226
-0.07613616 -0.012715202 -0.03546889 0.31135464 0.20382304 0.21301658 0.25912234 -0.22057989
-0.59312737 0.21506095 -0.28811938 0.046651047 -0.40905067 0.0604423 -0.22956975 -0.08120811
-0.37663317 0.29806736 0.06629105 0.016107531 0.09609609 0.23258892 -0.0499296 -0.24874285
0.2990389 -0.44708902 -0.688654 0.3386995 -0.1262136 -0.22393622 0.20791066 -0.6962419
0.07349206 0.13219202 0.44531047 0.48911905 0.12891638 -0.20558865 -0.22536717 -0.24347024
0.23213175 0.28944618 0.18762545 0.40855387 0.30774862 0.27316803 -0.19503464 0.15282689
0.36055708 -0.09464306 0.304062 -0.054369032 0.24029142 0.19465244 0.24763472 -0.026341861
0.066665635 0.34142777 0.20960303 0.16911347 -0.020430332 -0.31380674 -0.4777776 0.15811524
0.3300776 0.19712158 -0.0737704 -0.034133855 0.2945718 -0.050906908 -0.22259332 -0.3533877
-0.020829532 -0.2251655 0.15426593 -0.34859246 0.26692012 0.24459453 -0.1034675 -0.36876678
-0.25294155 0.24847035 -0.11312483 0.23507085 0.07989989 0.0755025 0.11138849 0.041814927
-0.19217241 -0.6104757 0.43287876 -0.25059292 -0.13431232 -0.035653945 0.19959795 -0.29634407
0.012984591 -0.5592007 0.30061325 -0.10121912 -0.26585665 -0.3635591 -0.18832591 -0.40143633

net.0.bias f4 [64]
00000000: 00b1 ba3e 3795 ec3d ba27 1b3f 26c5 253e
00000010: edeb 633e 31b8 c2be 9200 7f3e 1666 15bc
00000020: 327c 1c3e ee5e 2d3e 5f9e b03d b4c8 b53b
00000030: f19c f23e f8c8 263e 2f22 a43e b9ac 1b3e
00000040: d87f 0c3d b3bc 223e 6d78 433e 355e 72be
00000050: f847 88be 2878 10be 99d0 4f3d 728e 1fbe
00000060: d5ae 02be a209 603c 871c 78bc 8e0f 50bd
00000070: 1b59 2abe fa03 833d 73df 0c3f 76f9 a53d
00000080: a90b 023f ba36 393e 9829 bcbe f2ab 003f
00000090: 1543 11be cbdf 803e 96c7 693e 0e69 593e
000000a0: f8d1 193f a5d1 1e3e c049 f3be 9018 1abe
000000b0: ada3 b23e 458f 42bd 99b9 15be 414a 96bd
000000c0: 853b a03e 2457 943e f7ce b93e 1bd5 5d3c
000000d0: 578d f83e 09fb d93e 6230 543e 9ec9 b53e
000000e0: 8e07 25ba 76d8 813e c268 053f 38c5 bf3e
000000f0: 8875 ab3d 1e2f 883e 34b3 e8bd 0ca5 f13d
0.36463165 0.11551898 0.6060749 0.16188487 0.22257967 -0.38031152 0.24902561 -0.009118577
0.15281752 0.16930744 0.08623957 0.0055476073 0.47385362 0.16287601 0.3205733 0.15202607
0.03430161 0.15892296 0.19088908 -0.2366875 -0.26617408 -0.14108336 0.050736044 -0.15581682
-0.12762006 0.013674172 -0.01514352 -0.050796084 -0.16635554 0.06397243 0.55028456 0.081042215
0.5079904 0.18087283 -0.36750484 0.5026237 -0.14185746 0.2517074 0.22830042 0.21231481
0.6008601 0.1550966 -0.47517204 -0.15048432 0.348905 -0.047499914 -0.14621581 -0.073383816
0.3129541 0.28972733 0.36290714 0.013539578 0.48545334 0.42574337 0.20721582 0.35505384
-0.0006295376 0.2536046 0.5211297 0.37455153 0.08372027 0.26598448 -0.11362305 0.11799058

net.2.weight f4 [64, 64]
00000000: a2d0 a1bc e038 ce3d b2cc e63d 1723 1e3e
00000010: 419f 0d3d ac1d 1bbd 5302 b8be 05f2 ed3c
00000020: 6584 bd3d c3cb 8bbc 724d d33d 2567 793e
00000030: 84f0 fa3d 7444 2fbd 9e45 8fbe e060 1c3e
00000040: 2c41 b03d 55d3 06bd bcf7 373e 8c01 38bd
00000050: dac5 58be bb8c 09be 4b6f b9bd eb1a 52bd
00000060: 5471 b43d 353b 3bbd ab6c f9bd 01ee 743e
00000070: df0d 853d 9e92 4dbd d5bd eb3b a57e 0b3e
00000080: 4db1 003c 712d 3d3d 1a79 153d 20da 533e
00000090: 54dd 2a3d a399 213e b177 73be 414b dbbb
000000a0: 128f 1f3e 8437 56bd 8986 503e 3bb9 edbd
000000b0: d0af ee3c 7b37 113e 71b5 1cbe fd7e ebbc
000000c0: 776c f03d 6638 273e 6d4b eebd ef14 783d
000000d0: e701 7d3d b9da 95bc 3f4c 223d c428 b93e
000000e0: 9377 82bd b6a6 77bc 91a0 963d c466 97bc
000000f0: b8c9 173b 2046 6b3d 8e8b 30bd ea30 9a3d
00000100: 510a 9b3c 03f7 463d 06f1 b93d 73fd 1d3e
00000110: 85d0 13be 3c87 8fbd 0da4 1cbe 3289 8e3d
00000120: 678e b43d d445 2d3e 400d 953d 9808 4cbc
00000130: 8adf c23c ebd5 0d3d ed74 53be a59f 9a3d
00000140: 0b18 9ebd 54aa 87bd 429d 0a3e 8dfd 24be
00000150: 2d15 80be 9371 9abb 6929 af3d efa7 603d
00000160: 64d7 043e 4fd8 173e 15e3 a73d 5b01 7e3a
00000170: fe86 323d 6ff7 de3d 5e79 85bc 9582 993d
00000180: 60e9 1f3e 1949 f33d 156b 84bd f459 9e3e
00000190: 421d f4bc 0c36 323e 25b4 0bbe 7844 24bc
000001a0: 7a01 193e 5f00 c0bd 63c9 753d 0e26 65bc
000001b0: 1d95 143e 538d 46bb bc59 f0bd 6edc e43d
000001c0: fbad 1a3e b1fe 42bd 7796 a33d f5fc 003d
000001d0: d71f 4f3d 9029 edbd d948 f33d 80ab 9f3e
000001e0: 7b75 cc3c 0b30 f1bd 779c e33c 861e 52bc
000001f0: 95dc 83bd afe6 56bd 192f 503d 4ca8 443d
00000200: 7798 73bd 994d e03d b437 343e 35e9 c53d
00000210: 1875 56bd 0464 843d ed6c 1dbd d8ea 05bc
00000220: 148f c93d eaa9 40bc 2efb 383e d069 1c3e
00000230: 5c18 693e fc80 5c3b d7ca f73c 93bd 9f3c
00000240: 0c5e 8e3d 7810 0e3d 4058 2d3e ad74 c33c
00000250: dabb a63c 2da7 58bd c0ba d73d 59bb 35bd
00000260: fa3b dbbd 0548 dbbb bb52 24bb 1a59 b03c
00000270: d045 b7bb 33cc 1c3d 41db ba3d 08cd f83d
00000280: 6279 db3c e1e1 49bc eb91 6fbd 5740 ec3d
00000290: ab0d c73d c5ff 503e 9978 d2be 882a 713c
000002a0: d5cd c63d cebd 383e d5fd 5d3d 3c68 c1bd
000002b0: a264 abbd 6614 80bd b639 633c b59e cc3d
000002c0: 2a5e 453e 6ffe 2f3d 93c6 c13d e437 023e
000002d0: 500b 823d 7ada f7bd 6656 183d 3cee 5d3e
000002e0: dd9c 153e 67f9 3d3e a8cd 0f3c 16d7 973d
000002f0: d6bc 243e 2840 883d 57d6 d1bc ee6f 623d
00000300: 7534 2ebd d674 b03d ae18 433e ef9c 123e
00000310: 2441 f33d 6ac8 aabb 67d5 56be 65f7 a33d
00000320: d994 433c b927 e63d 4562 dc3d 1b3d 573e
00000330: 3891 253e fa27 883d 1a5e 1abe 1dd6 153e
00000340: 5beb 8a3c b1fd 1abd cbe4 423e 7046 edbd
00000350: 1735 2cbe 7ea6 b13d f062 c13d 53d0 a1bd
00000360: 921c fc3d e3d6 553d 1f10 60bd 29d4 a43d
00000370: b4c3 d33c 0247 213d 6884 6e3e b1af cd3c
00000380: 1abe afbc 5039 313e cdb1 5cbd 9c36 5f3d
00000390: 75c9 0b3e 1f57 f93c f367 bebe f49c ffbb
000003a0: 33b8 923d 2990 5c3e 4fb4 bebd 2b35 f1bd
000003b0: 8df8 d13c c89a 91bd 9a4c aa3d a7ea 9a3c
000003c0: b404 5e3e f8f3 543e 94e4 9f3d ee54 213e
000003d0: acff ce3c f729 ab3d da4b df3d a1bf 823e
000003e0: 7c3f 23bc 6f06 eb3c 4da4 033e 5dcc 32bd
000003f0: 1a16 d13d 1e0b 683c 6cec b2bc 3913 813d
-0.019752804 0.10069442 0.11269511 0.15443073 0.034575704 -0.037870094 -0.35939273 0.029046068
0.09253768 -0.017064935 0.10317506 0.24355753 0.12252906 -0.04278989 -0.279828 0.1527133
0.086061805 -0.032916386 0.17965597 -0.04492335 -0.21169224 -0.1343259 -0.090544306 -0.051295202
0.08810678 -0.04571076 -0.1217893 0.23918916 0.06496786 -0.050188653 0.0071942606 0.1362253
0.007854772 0.046185914 0.036492445 0.20688677 0.04171498 0.15781264 -0.23776127 -0.0066923206
0.1558192 -0.052299038 0.20363821 -0.116075955 0.029136568 0.1418132 -0.1530359 -0.028747076
0.11739438 0.16330108 -0.1163548 0.06056684 0.061769392 -0.018292772 0.039623495 0.36163914
-0.06370463 -0.015115431 0.07354844 -0.01848162 0.0023161005 0.057439923 -0.04310184 0.07528861
0.018925818 0.048575412 0.09079175 0.15428714 -0.14435013 -0.07008216 -0.15296955 0.06959762
0.088162236 0.16921169 0.07277918 -0.012453221 0.023788232 0.034627836 -0.20650072 0.07549981
-0.077194296 -0.066242844 0.13536552 -0.16112347 -0.25016156 -0.004713246 0.0855282 0.054847654
0.1297279 0.14828609 0.08197609 0.0009689533 0.04358577 0.10887038 -0.016293224 0.0749561
0.15616369 0.11879177 -0.06465737 0.30928004 -0.029799107 0.1740343 -0.13642938 -0.01002609
0.1494197 -0.09375071 0.06000651 -0.013986124 0.14510007 -0.0030296638 -0.117358655 0.11174856
0.15105431 -0.047606174 0.07987683 0.03149124 0.050567474 -0.11580193 0.11879129 0.31185532
0.024958363 -0.117767416 0.02778457 -0.01282466 -0.06438557 -0.05246609 0.050826166 0.048012063
-0.059471574 0.109523006 0.17599374 0.09663621 -0.052357763 0.06464389 -0.038433958 -0.008173667
0.09841743 -0.011759261 0.18064567 0.1527474 0.22763199 0.0033646217 0.030248089 0.019499576
0.06951532 0.034683675 0.16928196 0.023859346 0.020353246 -0.052893806 0.105336666 -0.04436812
-0.10704799 -0.006691935 -0.0025073725 0.021526862 -0.005593039 0.038280677 0.091238506 0.121484816
0.026791278 -0.01232192 -0.058488768 0.11535709 0.09719404 0.20410068 -0.41107634 0.014719613
0.09707228 0.18041155 0.05419715 -0.09443709 -0.083688036 -0.06253891 0.01386874 0.099912085
0.19274202 0.042967256 0.09461703 0.12716633 0.06349814 -0.12102218 0.03719177 0.2167291
0.1461062 0.1855217 0.00877706 0.07414071 0.1608766 0.06652862 -0.0256149 0.055282526
-0.042530496 0.08616035 0.19052383 0.14317678 0.11877659 -0.0052118795 -0.20979844 0.08006171
0.0119373435 0.11238045 0.10760931 0.21019404 0.16168678 0.0664825 -0.1507496 0.14632459
0.01695793 -0.037839595 0.1903259 -0.115857005 -0.16817127 0.08674334 0.09442699 -0.07901063
0.12310137 0.052206885 -0.054702874 0.08048279 0.025850154 0.03937436 0.23292696 0.02510819
-0.021452952 0.17307019 -0.0538805 0.05449544 0.13651069 0.03043705 -0.37188682 -0.0078006927
0.071640395 0.21539368 -0.09311735 -0.11777719 0.025631214 -0.071096 0.08315392 0.01891072
0.21681482 0.20796192 0.0780727 0.15755054 0.025268398 0.083576135 0.109031394 0.25536826
-0.009963866 0.028689591 0.12855645 -0.043651927 0.10209294 0.014162807 -0.02184125 0.063024946

net.2.bias f4 [64]
00000000: abd3 653e a573 223e 3c7b 4c3d eb3d 703e
00000010: 44ed 30be aabb 053e d884 fe3c 7c7c b63d
00000020: f9b3 3cbe 900f 053c 65f7 013e 1828 503e
00000030: 5810 b93d 323d 1dbe edb3 503e 657a abbd
00000040: 030d 8e3e 5acc 143d 026f 2c3c 116e a23d
00000050: d12a 073e de2d 613e 6006 a3ba 5139 2c3b
00000060: e5b7 b63d f735 9cbd 6783 e0bd 80c7 8a3d
00000070: 276f e93d 7831 6dbc 0318 5c3d 970d ce3b
00000080: 1f24 fdbd 2a65 c73d 1517 9b3d d568 973e
00000090: 84b7 313e 06ad 82bd 45e6 5bbd b332 0c3d
000000a0: b27c a33e 0c06 2b3e 91ea 093e b83a c33d
000000b0: 989b 98bd 382b bd3e 1dce 4e3d 5916 6c3e
000000c0: 17b8 5d3e 3028 783d 1514 383e 8055 28be
000000d0: c277 8f3e 95fe 383d 8f99 2d3e 09fc 713e
000000e0: b74e 27be dafc d8bd aee6 c63d 7d11 683e
000000f0: 4273 b33d 7e43 6d3d 2547 073e 8669 6e3d
0.22444026 0.15864427 0.049922213 0.2346112 -0.1727801 0.1305987 0.031069204 0.08910462
-0.18428029 0.008121386 0.1269203 0.20327795 0.090363204 -0.15355375 0.20381136 -0.08372954
0.27744302 0.036327697 0.010524513 0.0793115 0.13199927 0.21990153 -0.0012437813 0.002627928
0.08921794 -0.076274805 -0.10962563 0.06776333 0.11398154 -0.014477126 0.053733837 0.006288241
-0.12360405 0.097360924 0.07572762 0.29572168 0.17355162 -0.06380658 -0.0536864 0.034228038
0.31931072 0.16701525 0.13468386 0.09532684 -0.07451552 0.36947036 0.050489534 0.230554
0.21652256 0.0605852 0.1797641 -0.16438866 0.28021055 0.045164663 0.16953109 0.236313
-0.16338621 -0.105951026 0.097119674 0.22662921 0.08762218 0.057925694 0.13210733 0.058206104

net.4.weight f4 [2, 64]
00000000: 5181 bd3d c53a 353d 61fa 3f3e 8505 433e
00000010: 2de1 64bd ee79 bbba 9c65 3b3e 4715 85be
00000020: 58c5 05bf b84a 7c3d c695 083d 884d 6f3e
00000030: 0690 203e 2ed1 c53c 5870 083e b7c1 7cbe
00000040: 001e 243e 446b 423d 0395 e5bd bec6 043e
00000050: 73f3 d33d 240b 193e 8a85 643e d683 ccbe
00000060: 8dfd 183e 41f1 26be 9067 15bc 7501 5fbe
00000070: 1b81 d13d a708 3f39 f018 c8be 61a2 0abe
00000080: bf57 8ebe d888 a7bd f5be 183e bd14 7a3e
00000090: 8bd6 613e c19e 8fbe 7ce9 87be 2e6e 4c3e
000000a0: 0b98 ff3d 7426 b4bd 1203 0b3e 18e5 773e
000000b0: 4e08 98be 0e33 4c3e 09a8 7bbe 7cf7 653e
000000c0: 09c9 0fbd 4a73 30be ef77 bbbd 10fb 28be
000000d0: 689e 213e db65 443e da7b 873d 3681 193e
000000e0: 9538 24be ec45 4bbe 9c0f 833e 1352 ef3d
000000f0: b6a2 1c3e f856 463e e31d 5a3e 49b3 50be
00000100: bc84 723e 0430 453e 68ba ba3d 0882 ea3d
00000110: a57d 40be aa59 5c3e 9b63 023d 96c5 963e
00000120: c969 eebe e0c1 eb3b 1c89 f83d c2d2 c23d
00000130: 4871 e43d d6c9 78be fa23 773d 2fc5 333e
00000140: 9d06 863d a893 74be f5b2 563e 06de 533d
00000150: 2304 bb3d 306a 4d3e c6a2 b2bd fdf7 81bc
00000160: 61be 253e 92f0 053e ce73 90be 25f1 073e
00000170: c91f 093e 650f 5cbe 8176 273e 5493 033e
00000180: d472 a8be d882 aa3e a9e5 a0bd e4fa 303e
00000190: fd68 09be 2707 95be 0616 cdbd 01c9 39be
000001a0: 6bf9 4a3e dd0f da3e 11f6 a83d a2ed a23d
000001b0: 8cae 1dbf c93b 843d 7e83 5b3e d7f2 3d3e
000001c0: cdd9 3a3e c3a7 9d3e b329 503e 6ace 28be
000001d0: cf1f 333e 93d8 18be f53f 283e 1d9f 173e
000001e0: 4c5d f4bc 1de0 86be 64d4 bd3c 08f9 283e
000001f0: fe13 65bd 32c0 11be a333 6d3d f6c1 743b
0.09253181 0.0442455 0.18747856 0.19045074 -0.055878807 -0.0014303306 0.1830048 -0.25992796
-0.5225425 0.061594695 0.03334596 0.2336942 0.1567994 0.024147596 0.13324106 -0.24683271
0.16027069 0.047465578 -0.11210062 0.12966439 0.10349169 0.14945656 0.22316566 -0.39944333
0.14940472 -0.16302969 -0.0091189295 -0.217779 0.10229703 0.00018218403 -0.39081526 -0.13538505
-0.2780132 -0.08180398 0.14916594 0.24421974 0.22054498 -0.28050807 -0.26545322 0.19963905
0.12480172 -0.08796397 0.1357539 0.24208486 -0.29693836 0.19941351 -0.24575819 0.22457689
-0.03510383 -0.1723148 -0.09153735 -0.16502023 0.15783083 0.1917948 0.0661542 0.14990696
-0.1603721 -0.19850892 0.25597847 0.11685576 0.15296444 0.19369113 0.21300463 -0.20380892
0.23683447 0.19256598 0.091175854 0.11450583 -0.1879793 0.21518579 0.031833272 0.2944762
-0.46565083 0.0071947426 0.121355265 0.09512855 0.11154419 -0.24295744 0.060337044 0.17555688
0.0654423 -0.23884451 0.20966704 0.05172541 0.091316484 0.20060039 -0.08722453 -0.01586532
0.16185905 0.13080052 -0.28213352 0.13275583 0.13391031 -0.21490248 0.163538 0.1284917
-0.32900107 0.3330295 -0.07856304 0.17283207 -0.13418956 -0.2910702 -0.10013966 -0.18143083
0.19821708 0.42590228 0.082500584 0.07955481 -0.6159446 0.064567156 0.21436879 0.18549667
0.18247147 0.30792055 0.20328407 -0.1648499 0.17492603 -0.14926367 0.16430648 0.1480679
-0.029829644 -0.2634286 0.023172565 0.16501248 -0.05592727 -0.14233473 0.057910573 0.0037347055

net.4.bias f4 [2]
00000000: 4111 4e3e de50 183e
0.2012377 0.14874598
