outputs/srt.pt (torch, 22437 bytes, 6 tensors)

net.0.weight f4 [64, 9]
00000000: 89ec 1abe 7c62 5d3e 5765 7cbd 6ad5 8abe
00000010: cdc3 14be 58bc 323d 4f54 91be 56c1 ac3e
00000020: e181 41bc 7d4e 75be dd04 9b3e 2780 e1bd
00000030: bebb bbbd acd0 17bd b5e9 e93d 0a09 94bd
00000040: 3296 9fbe 7c5a dd3c ceda 3f3e b37d 7bbd
00000050: 3007 a53e f50e b43e 7e68 7d3e 624d 93be
00000060: bd5a f9bc 8cdc a8be 8382 be3e d1da 6e3e
00000070: a49f 903c 0f88 b53d 531f 403d 88b5 c83e
00000080: 934b 15be 6226 0e3f bae6 b33d 066b b13e
00000090: de92 c0bd af40 f33d 1aef 87bd 2f91 b7bd
000000a0: b0f6 f0be 8615 c33c 4b1a 253f 13e7 043f
000000b0: de95 ac3e 820e 7d3d a459 0cbd fcd9 1abd
000000c0: 05d2 943e dfe9 4c3c c614 09bd 0fd1 f9bc
000000d0: f250 41bf 2048 183e b277 39be 5ff9 fc3b
000000e0: e87c 833e 1b78 a73e 41d0 4b3d 9517 ff3d
000000f0: db12 2bbe f8dd 673f 6a21 6038 d483 64be
00000100: 26ea 0dbd 9aa3 733e b4e2 e53e 4385 1fbd
00000110: 04d6 d2bd 6081 573f 4d66 1b3f 1773 163d
00000120: 82bf 1bbd 3d3b e73c 85e1 16bd b5d5 703d
00000130: b5df 133e 5548 8bbc d7dc 19bf 078f 533f
00000140: ea91 1fbe 70e7 ccbc 9bf7 c93d 0aa5 80bd
00000150: 319a 10bc 1791 813e b8da 3e3e 43bd 963f
00000160: 4f0c f83e 57c6 533e 7dfe ccbd fc24 c33d
00000170: 0f08 6dbe c020 923c 3301 1ebd 8a5a 283c
00000180: b0c8 fabe ab66 3c3f 38a5 01be 27a0 2b3e
00000190: 6b73 8a3e f090 c83e 815f 7a3d b581 75be
000001a0: dc12 a23e 3ad7 fb3e 33da 7c3e 807d 7c3e
000001b0: 8d3b 89bc adca 533e eb7d 853e 80b6 393e
000001c0: cc9a 85be 8476 3bbe 19cf e43e ea9a 01be
000001d0: 6e0c 773e 7704 023e d5f8 6f3e dad5 403e
000001e0: 2f4a c63c 218d 6d3e 11fe 453e 921f eebe
000001f0: 7572 033f 9ca1 48be c36a 31bd a92b 2b3d
00000200: 0dc3 9fbe 7a17 9fbc 04b8 713e 8431 83be
00000210: 42ea 213e cba8 1cbf 55af 65be d1c9 373e
00000220: 141f 413e 39e5 943e a18d 8b3e 42fd 09bd
00000230: c61d 893e bc1a 963d 51ba ef3d 2e68 d53d
00000240: 0187 143e 4e25 683d 8409 c33e 6d99 463e
00000250: a132 4a3e 4bb9 65bc 056a 40bc e2a7 a73d
00000260: 5298 813d 910a 7e3d d24c 123e e038 423d
00000270: e577 b0bd bbca bebe 5aad 7f3d 35da 193d
00000280: bf2b a4bd db31 60bd 56a7 e3be 1f71 50be
00000290: 3db6 92bd dd79 6bbe 1b2a ebbd 782f f4bc
000002a0: 8902 7ebf 05ba 2b3e 85bc 893d c8a9 a13e
000002b0: 9fcb 8d3e 997b 91be 566f 7fbc d69a aebd
000002c0: f505 9dbd a4ca c4be 9f4a 993e b8aa 72bd
000002d0: d599 003d 6e3d 8b3e a02d a4bd 4633 563e
000002e0: 5ca6 2d3e d10d 923e 64b3 4d3e f2c6 1cbf
000002f0: b5fc 473e 7d30 99bd d972 d1bd 0618 d13d
00000300: d403 633e 7071 683e 3975 723e 440b 61bf
00000310: c8b0 cc3e 733a 9bbe 3ed0 3d3e bde5 59bd
00000320: cea1 d13e 21f1 9f3e 861b f93d d318 a3be
00000330: d5c0 0f3f b6cf efbc 8e26 2f3d 8997 a23e
00000340: 7c7f 4cbe f2b5 c83e 6e60 5a3e cd49 5b3e
00000350: b072 b0bd 7709 3cbe 0416 1c3f 23a3 17bb
00000360: 5ac0 823e c6f1 79be 74bc b53e 7964 813e
00000370: 3342 26bd f0b9 263d 6397 1f3f 9a5f 213f
00000380: d874 32be a9cb 11be 6eeb 8b3e ef39 213e
00000390: 0f8a b2bd bda7 9ebe 960d 863e 1709 9e3e
000003a0: 77d5 67be 62ef a13e 09d4 b2bc 03d0 9f3e
000003b0: 93c2 6bbe 46da 7cbe d685 d4bd f9ee 8dbe
000003c0: 1057 0bbf 71df 143f 86c6 efbd a3aa e1bd
000003d0: a903 0c3e 8a59 523c 6d80 9c3e 716f 68be
000003e0: 0a1d 4e3e 94f1 32be 3ebe 2e3f e71e 0a3e
000003f0: ab7b 15be 3975 973e 86a7 59be 4da3 313e
-0.15129294 0.216196 -0.061620083 -0.27115947 -0.14527817 0.04363665 -0.28384635 0.33741254
-0.011810751 -0.23955722 0.30277148 -0.11010771 -0.09166668 -0.03706424 0.11421529 -0.072282866
-0.31169277 0.027020685 0.18735811 -0.061399173 0.32232046 0.3516766 0.24746892 -0.28769976
-0.030438775 -0.32980764 0.37208948 0.2332566 0.017654248 0.08863842 0.046904873 0.39200997
-0.1457961 0.5552732 0.08784242 0.34651965 -0.09403013 0.11877572 -0.06637402 -0.089632384
-0.47063208 0.023813974 0.64493245 0.5191509 0.3370809 0.061781414 -0.034265175 -0.037805542
0.29066482 0.012506931 -0.033467077 -0.030495195 -0.7551414 0.14871264 -0.18112066 0.007720157
0.25681233 0.3270882 0.049759153 0.1245567 -0.16706412 0.9057307 5.343688e-05 -0.22315913
-0.03464713 0.23792878 0.44899523 -0.038945448 -0.102947265 0.84181786 0.60702974 0.036730852
-0.038024433 0.02822649 -0.036836166 0.058797557 0.14440806 -0.017002264 -0.601026 0.8264012
-0.15583006 -0.025012702 0.0986168 -0.06281479 -0.008825825 0.25306007 0.18638122 1.1776508
0.4844689 0.2068113 -0.10009477 0.095285386 -0.23147605 0.017837882 -0.038575362 0.010275492
-0.48981237 0.7359416 -0.12660682 0.16760312 0.27041182 0.3917308 0.061126236 -0.2397526
0.31655014 0.49187642 0.24692611 0.2465725 -0.016752029 0.20682783 0.2607263 0.18136024
-0.26094663 -0.18306929 0.44689253 -0.12656751 0.24125835 0.12697016 0.23434766 0.18831578
0.024205295 0.23198368 0.193352 -0.4650846 0.5134652 -0.19592899 -0.043314707 0.041789684
-0.312035 -0.019420374 0.23605353 -0.25623715 0.15812019 -0.6119506 -0.22430165 0.1794808
0.18859512 0.29081133 0.27256492 -0.03368879 0.26780528 0.07329318 0.11705459 0.10420261
0.14504625 0.0566762 0.38093197 0.19394465 0.19745876 -0.014021228 -0.011744027 0.08186318
0.06327881 0.062021796 0.14287117 0.04741752 -0.08616618 -0.37264046 0.06242118 0.037561614
-0.080161564 -0.054735046 -0.44463605 -0.20355652 -0.071636654 -0.22995706 -0.1148264 -0.029807791
-0.9922262 0.1677018 0.0672541 0.31574845 0.27694413 -0.2841461 -0.015590509 -0.08525626
-0.07667152 -0.38435853 0.29939744 -0.05924484 0.031396706 0.27195305 -0.08016515 0.20917997
0.16957992 0.28526166 0.20087963 -0.61241066 0.19529994 -0.074799515 -0.102269836 0.1020966
0.22169429 0.22699523 0.2367753 -0.87907815 0.39978623 -0.3031803 0.1853647 -0.05319761
0.4094376 0.31238654 0.12163453 -0.31854877 0.56153613 -0.029273849 0.042761378 0.31756237
-0.19970506 0.39201313 0.21325848 0.21414872 -0.08615625 -0.18362986 0.60971093 -0.0023138009
0.25537378 -0.24408635 0.3549534 0.25271967 -0.040590476 0.040704668 0.6234037 0.630365
-0.17427385 -0.14237846 0.27328056 0.15744756 -0.08717739 -0.3098735 0.2618224 0.3086631
-0.22640024 0.31627947 -0.021829622 0.31213388 -0.23023443 -0.2469264 -0.1037709 -0.27721384
-0.5442972 0.58153445 -0.11707787 -0.110188745 0.13673271 0.012838731 0.3056673 -0.22698762
0.20128265 -0.17474967 0.68259037 0.13488351 -0.14597957 0.2958162 -0.21255311 0.1734745

net.0.bias f4 [64]
00000000: 63fb 3d3e 9c3f 253e df97 f7bd 3cbb 26bd
00000010: 4ed8 483e 3c8f 82be d3df 703e 5ddd 9b3e
00000020: c784 5c3e 3c20 3a3f 196c 1f3e 1a55 9d3b
00000030: 36e2 06bc 8291 843e 3ea7 53be 3ec5 523d
00000040: 541b c33e c5c8 91be c11f 8a3e e188 13bd
00000050: 86ee 8f3e 4241 febd fd02 03be 4105 b83e
00000060: 8b8c 263f 4e8f 7b3d ff0d d1bd 0083 be3e
00000070: 55c5 7abe dbcc 67be 24bf 1f3f b970 3e3f
00000080: c8c4 f1bc 6f05 053e d1c0 ad3d f836 9dbc
00000090: 1392 55be 0034 9e3e bc1b 103e 1e6c 8bbe
000000a0: 8a91 863e ca67 123f d896 833e 4dfe a3be
000000b0: ea25 1f3e 3622 b03e c265 bf3d eb1b 003c
000000c0: 6af7 bf3c 5fc8 d53d 02ff 453d 518e bebd
000000d0: 4d12 a83e 7930 95be 42c9 b43e 59bd b13d
000000e0: d57c a23d 9dac 113f 7d7c aa3e 8c78 95be
000000f0: f08c 7abe 6880 a6be 7299 13be 6847 b93e
0.18552928 0.16137546 -0.12089514 -0.040705904 0.19613764 -0.25499904 0.23522882 0.30442324
0.21535026 0.72705436 0.1556858 0.0048014047 -0.008232644 0.25892264 -0.20669267 0.051457636
0.38106787 -0.28473487 0.2697735 -0.03601921 0.28111666 -0.12414791 -0.12794109 0.35941508
0.650582 0.061415963 -0.10207748 0.3720932 -0.24489339 -0.2263674 0.6240103 0.7439075
-0.029512778 0.12990354 0.084840424 -0.01919125 -0.20856504 0.30899048 0.1407308 -0.27230924
0.26282912 0.5718962 0.25701022 -0.32029954 0.15541807 0.344011 0.09345581 0.007819156
0.023433406 0.104386084 0.048338898 -0.093044885 0.32826462 -0.29138544 0.35309798 0.08678693
0.07933966 0.5690401 0.33298102 -0.29193532 -0.24467826 -0.3251984 -0.14414003 0.3618729

net.2.weight f4 [64, 64]
00000000: d3fb e8bb 703d f4bc 198e 6d3d b21f 31bd
00000010: 2368 fe3d 5f15 80be 49bf 503e 54b0 593e
00000020: e4b4 de3e 6fa1 8c3e 0377 173e 0df3 90bd
00000030: 1dc0 aabd 742d 1c3e 4954 bfbe 0de6 53bc
00000040: e1f9 afbc 5e5e c2bd 56c9 b43d bace d63d
00000050: 6b1a 24bc 379e 7a3e 5a47 a2bd 6bfb 3e3d
00000060: e948 143d 4dc9 16bd 798b 75bd 942f 083e
00000070: e382 e63d bc25 8dba 152a 163e 60e7 77bd
00000080: c88f 9d3c 84fa 94bd 5270 603e 1a44 dfbc
00000090: f1ad 143e 97b3 2abd 1e0c 31be d583 0dbe
000000a0: b3ff 3dbd 1a2f a03d 1909 613d 445a 54bc
000000b0: 0dc6 133e 5a72 96bc e311 7d3d 3c8f 573e
000000c0: 02b1 493e b4ae 9b3e 0070 91bd e923 033e
000000d0: de8f e2bc a04e 043e b13a 483d 8d3d 72be
000000e0: 7b4e 81bd f1d1 f03c 2333 e0be 81f6 c1bc
000000f0: 3e83 e93d 2b13 163d 01d5 303e 9735 8d3e
00000100: 35a4 583d 67d9 c7bd 2aae 623c 7733 803e
00000110: 0d08 823e 754a 6bbd 9527 853e c431 b43e
00000120: 74b0 1a3e 9c94 073e 74e6 933c 72fb f23d
00000130: d52f 1c3e 8ea6 aabd a359 bdbc 6211 323d
00000140: 421f bc38 0cf9 033e 8428 523b 59b0 133d
00000150: 5714 9abd 1284 d6bd 366f 383e a1ce a33d
00000160: 9fbd d83d a359 efbc 28f1 253d 7448 e73d
00000170: b54f ec3d 0ab9 033e dc2e 273e f504 943d
00000180: 2f46 b4bd 49bc c93c 5894 003e ee5f 043e
00000190: 38f4 1fbe 561b a8bd 0d14 a7bc 002a c53d
000001a0: bd58 33bd 1da6 ba3d a974 293c e0d0 49bd
000001b0: aa00 2d3e 94d5 76bc 23be 1e3e f338 1e3e
000001c0: ecaa e6bd 577a e73d ee21 253d 0589 cabd
000001d0: c6fc 09be 120c 9bbc 23b1 18be c9fc 85be
000001e0: a889 8cbd 2087 bd3e 3007 e3bd 5928 db3d
000001f0: 43fd c4bd 58ae 8fbd 9a5d 693d 8374 583e
00000200: d8ba fd3d 36b5 7abd ca60 283e ec92 f23c
00000210: 6cee 353e 9111 5cbd 0c10 653e 3689 443e
00000220: 89a5 013e 2f2d 893e bf6e 28bd 5751 7f3d
00000230: 32e1 f93a f718 043e 2527 58be 0555 533d
00000240: 443f 34bc 0799 01bd 12c0 50be 5043 243c
00000250: 370d df3d 493a 0cbd 9a2d 193e 18c6 153e
00000260: 0036 913d 56c6 a6bd f892 583d 9b93 abbd
00000270: 1718 5e3d 242d 62ba 6e29 593e 4d59 0c3e
00000280: c75e 08be 3b19 e13c 9e2e de3d 2d39 0a3e
00000290: 8afe 0fbd f3ff 9e3d c8b7 69bd 48e6 56bd
000002a0: 4bdf a43c f311 253e 8d91 023e f56e 8f3d
000002b0: a2ee 153e 7b38 c93d 2d58 943d dbdd 583d
000002c0: 24e3 3cbe e5cb 043e aa94 9b3c 85c9 433d
000002d0: 6f77 39be 2a89 6c3d 9f55 afbd 86cf febd
000002e0: 41d9 13be a801 943e 9421 a0bd 94f7 82bd
000002f0: eb23 34bd aa15 efbd c796 07bd 1b7a 903e
00000300: 05ad 3e3c 4be2 183e 46b2 423d c291 bd3d
00000310: c722 3b3d 43c5 263e 4aa9 f4bd 4b49 2d3e
00000320: 81a8 94be bd6a 8d3d 79fb 4dbd c502 ae3c
00000330: 6fb6 e43d 7efe d3bd c1b8 8c3e 530f 0bbd
00000340: 89b6 033e 55e3 df3d a72c a1bc b454 ab3c
00000350: 8267 c03d 4694 d3bd b0ff 0c3e c341 bf3d
00000360: 9c4d 94b9 d4fb 2abc 760a 903a fe56 b43b
00000370: 8152 03bd 2fdf 68bd 76e4 943c 39ac 2d3e
00000380: 8e4d febc b9b9 1c3e 7137 05be fb32 073e
00000390: 123d 03bd 4523 133d 6020 903d 99f3 923d
000003a0: 781b 01bd fb63 f6bc f1f3 90bc 25b0 0a3d
000003b0: 720d 8bbd 3e21 ae3a 3ca0 d43d a163 8ebd
000003c0: f802 94be 6690 1a3d f24d 88bd 212a d7bd
000003d0: a81f 40ba 88cb 093e d3e5 2abd 09e6 883e
000003e0: 082d 073e fb5e 2a3e 418d 263e 6182 86bd
000003f0: 5218 a33c b2ea a1bd 65e5 c6bc 8dcd 5fbd
-0.007110098 -0.029814452 0.057996843 -0.043243118 0.12422206 -0.25016305 0.2038547 0.2125867
0.43497384 0.27466914 0.14791493 -0.07077608 -0.08337424 0.15251714 -0.37368992 -0.012933266
-0.021481456 -0.09490655 0.08827464 0.10488649 -0.010016064 0.24474417 -0.079237655 0.04662649
0.036202345 -0.03681307 -0.059947465 0.132994 0.112554334 -0.0010768692 0.1466449 -0.06052339
0.0192336 -0.072743446 0.21917847 -0.027254153 0.14519478 -0.041675176 -0.17289779 -0.13819821
-0.046386432 0.07821484 0.054940317 -0.012960974 0.14431019 -0.018365074 0.061784636 0.21050733
0.1969643 0.30406725 -0.071014404 0.12806667 -0.027656492 0.12920618 0.048884097 -0.23656292
-0.06313797 0.029396983 -0.43789014 -0.023677113 0.114019856 0.036639374 0.17268755 0.27579948
0.052890975 -0.09758263 0.013835469 0.25039265 0.25396767 -0.057444055 0.2600676 0.35194218
0.15106374 0.13240284 0.018054225 0.11864366 0.15252621 -0.08332549 -0.023114031 0.04347361
8.970361e-05 0.12887973 0.0032067606 0.03605685 -0.07523411 -0.10474409 0.18011174 0.07998396
0.10583042 -0.029217547 0.040513188 0.11293116 0.115386404 0.12863556 0.16326469 0.07227508
-0.08802449 0.024625914 0.12556589 0.1292722 -0.15620506 -0.08208339 -0.020395303 0.096271515
-0.0437858 0.09113715 0.010342755 -0.049271464 0.16894785 -0.015065569 0.15502219 0.15451412
-0.112630695 0.11302631 0.04031556 -0.09889416 -0.13475332 -0.018926654 -0.14911322 -0.26169422
-0.06862193 0.37017155 -0.11085355 0.10701055 -0.09618618 -0.07015675 0.05697403 0.21138196
0.12389153 -0.061207972 0.16443172 0.029611073 0.17766732 -0.05372769 0.22369403 0.19192967
0.12660803 0.26792285 -0.04112124 0.06233343 0.0019064306 0.12900148 -0.21108682 0.051594753
-0.011001412 -0.03164008 -0.20385769 0.010025814 0.108911924 -0.034235273 0.14958802 0.14626348
0.07090378 -0.08143298 0.052874535 -0.08377763 0.054222193 -0.00086279423 0.2120721 0.1370594
-0.13317405 0.027477851 0.10848735 0.13498373 -0.035154857 0.07763662 -0.057060033 -0.052465707
0.020126006 0.16120128 0.12750836 0.07003585 0.14641812 0.09825226 0.07243381 0.052945953
-0.18446022 0.12968405 0.018991787 0.047799606 -0.18111967 0.057747997 -0.08561253 -0.12441926
-0.14438345 0.28907514 -0.078189045 -0.06394878 -0.043979567 -0.11674054 -0.033102777 0.2821816
0.011637931 0.14930074 0.047533296 0.09256317 0.045687463 0.16286187 -0.11946352 0.1692249
-0.29034808 0.06905124 -0.05028865 0.021241555 0.11167609 -0.10351275 0.27484706 -0.03395016
0.128626 0.10932032 -0.019674612 0.020914413 0.093947425 -0.10331015 0.13769412 0.09338715
-0.00028286583 -0.010436017 0.0010989446 0.0055035343 -0.032061104 -0.05685347 0.018175345 0.16960229
-0.03104284 0.15305223 -0.1300943 0.13203041 -0.032040663 0.035922308 0.07037425 0.07175369
-0.031520337 -0.030076971 -0.017694445 0.03385939 -0.06789674 0.0013285053 0.10382125 -0.069525965
-0.28908515 0.037735365 -0.06655492 -0.10506082 -0.0007328936 0.13456547 -0.041723084 0.26738003
0.13200772 0.16637795 0.16264822 -0.065678366 0.019909058 -0.07906093 -0.024279306 -0.054639388

net.2.bias f4 [64]
00000000: c363 acbc 3da4 753e 784e 1f3e 8518 2d3e
00000010: 8a13 da3d c4b7 373d 3e19 383d 5f07 3abd
00000020: ad1a bf3d cc97 163e d4a5 ee3d 7159 87bd
00000030: 969e 3f3d 102d e03d e1a9 863d de38 143e
00000040: 48cf ddbd 4aea 353c f558 1abc b8dd 6e3e
00000050: c715 533d ec99 7c3c 495c adbd bf2b 423e
00000060: 0187 443e 4d36 3e3e 0896 a23d 180c 84bc
00000070: 58c7 d03c 3b10 c73d 2c6b cf3d 360f ddbb
00000080: e8f8 023d bfed 8a3d 7521 973d fa46 99bd
00000090: 4806 b3bd d09d babd 210a 463e 26a4 363e
000000a0: 1829 403e de09 f93d 7139 68bc 89e0 9f3e
000000b0: 6004 353b e424 abbc c808 813d 2aff 28bd
000000c0: cad2 86bd e185 283e e254 98bc e47e e23d
000000d0: 2c17 063e c8be 433e 5a5e 19be ca96 99bd
000000e0: 6b35 2b3e 2331 953d 624f 003e c401 ad3d
000000f0: d011 913e 0fa8 753e b189 47bd 9de3 413d
-0.021043664 0.23988433 0.15557277 0.16903885 0.10648258 0.044852987 0.044945948 -0.045417186
0.0933126 0.14706343 0.11652723 -0.066088565 0.0467821 0.10946095 0.065753706 0.14474818
-0.108305514 0.011103222 -0.009420623 0.23326766 0.05153444 0.015417557 -0.084648676 0.18962
0.19192125 0.18575402 0.079387724 -0.016119048 0.02548568 0.097198926 0.10127863 -0.006746198
0.031975657 0.06783628 0.07379428 -0.07484241 -0.087414324 -0.091121316 0.19339801 0.17836055
0.18765676 0.12160085 -0.014173851 0.31225994 0.0027621016 -0.020891614 0.06300503 -0.04125897
-0.065831736 0.16457321 -0.018595163 0.11059359 0.13094777 0.19115746 -0.14977399 -0.07499464
0.16719596 0.07284763 0.12530282 0.084476024 0.28333902 0.2398989 -0.048715297 0.04733621

net.4.weight f4 [2, 64]
00000000: dc0a 523d b3fa 683e f7b6 2a3e 87a2 703d
00000010: b990 f03b a50b 20bd 4c32 21be 35c4 25bd
00000020: a8c3 673d 3756 463e 7843 983d 9680 cd3c
00000030: ca54 c6bd aed2 39bb c44d bebd 511e f63d
00000040: 46da e8bc 53ef 1abd e584 b7bd beb1 7b3d
00000050: 56bc 0f3c d1f0 873d 1249 04be 8624 8cbd
00000060: a8d2 e93d 3234 6b3e 9298 9d3d 9274 1d3d
00000070: 8746 9bbd 2c65 013e 1e77 16be 298a a53d
00000080: af55 f83d 1c10 cc3d 0a57 413c d26a 17bd
00000090: 9d1d 05be 42e7 b5bd 42f8 213e 10cb 153e
000000a0: aa07 573d f4e5 4f3c 050e 4dbc a715 2f3c
000000b0: 0764 6ebd 38d2 2abe f348 63bd 6903 bebd
000000c0: 6c6b 0f3d 95d4 693d 1457 e93c ebff d5b9
000000d0: caaf c23a 2218 0c3e 8cf4 59bd 0d6d 87bd
000000e0: ff52 f43d 0b86 8f3d 5aeb 813c 70ef aa3d
000000f0: c55a 23be bea1 363e 26eb 813d 2b73 91be
00000100: 9653 d43d ad8c 053d c16a 653d 7706 02be
00000110: b1d0 01be 6b2c 27be d0ba a2bd 054f 2fbe
00000120: 2a32 a03e 62e2 1cbd 9057 88bc b96d 05be
00000130: 161c e93d aa9f 19be 6e6c 18be bb11 023e
00000140: 4fe8 e8bd 48b6 e63d cc9e db3d 3bda b53d
00000150: 8a5b fc3c 1357 e9bd 6957 0e3e 5c47 80be
00000160: 7c21 2a3d 528b 8cbb d891 58bc c38c 89bd
00000170: 2356 dd3d 2e36 24bd 36b5 75bc 5531 393e
00000180: f727 863d 06c9 683e 08f1 15be 6302 e73d
00000190: 1e64 87bc 41ad 8e3d 3674 af3d e3dd ac3d
000001a0: 2319 40bd c11d 673e 37fa 25bd 6a92 c2be
000001b0: 90a7 9b3d d868 5abe 2bd7 763d 0031 5e3d
000001c0: 4066 0abe 9eb2 0e3e c9e0 f83d 286e e33e
000001d0: 1049 923e 9249 503e 6430 053e b87b e63d
000001e0: 4fd4 713e 00eb 17bd 73e5 0abe 7671 a63d
000001f0: 7fef bcbe d020 9cbe e8d8 04be b487 643e
0.051279888 0.22751884 0.16671358 0.05874875 0.007341471 -0.039073605 -0.15741843 -0.04047032
0.056583077 0.19368826 0.07434744 0.025085729 -0.09684141 -0.0028354335 -0.09292176 0.12017501
-0.028424393 -0.037825894 -0.089608945 0.061448805 0.00877293 0.06637729 -0.12918499 -0.06842904
0.114171326 0.2296913 0.07695116 0.03844125 -0.075818114 0.1263625 -0.14693877 0.080829926
0.12125718 0.0996401 0.011800537 -0.036967106 -0.12999578 -0.088819996 0.15817359 0.14628243
0.052497543 0.012689102 -0.01251555 0.010686315 -0.058200862 -0.16681755 -0.05548949 -0.09277994
0.035014555 0.0570875 0.028483905 -0.000408172 0.0014853415 0.13681081 -0.053211734 -0.06612597
0.11929893 0.070079885 0.015859295 0.0834645 -0.15952595 0.17835137 0.06343679 -0.2840818
0.10367505 0.032604862 0.05601001 -0.12697779 -0.12677266 -0.16325538 -0.07945788 -0.17119987
0.31288272 -0.038301833 -0.016643316 -0.13030137 0.1138231 -0.15002313 -0.14885113 0.12702076
-0.11372434 0.11265236 0.107236475 0.08879515 0.030805368 -0.11393561 0.13900532 -0.25054443
0.04153584 -0.004289069 -0.013218366 -0.06716301 0.10807445 -0.040090732 -0.014996817 0.18085225
0.065505914 0.22732934 -0.14642727 0.11279752 -0.016527232 0.06966639 0.08567087 0.08440759
-0.046898972 0.22569944 -0.040521827 -0.3800233 0.076003194 -0.21329057 0.060263794 0.05424595
-0.13515568 0.13935325 0.12152249 0.4441998 0.28571367 0.20340565 0.13006741 0.11254066
0.23616146 -0.037089348 -0.1356409 0.0812711 -0.3690147 -0.30493784 -0.12973368 0.22317392

net.4.bias f4 [2]
00000000: b161 3fbc c0b8 4a3d
-0.011681006 0.049492598
