outputs/srt.pt (torch, 22449 bytes, 6 tensors)

net.0.weight f4 [64, 9]
0.10031339 -0.14839494 0.10916076 -0.025714979 -0.24938735 0.30780566 0.9827967 -1.0308162
-0.16002992 0.014758388 -0.21118823 0.03150652 -1.275729 0.0015773204 0.116515696 -0.09241454
1.246274 -0.073809355 0.26949605 -0.19509944 0.26217917 -0.35107 0.15201873 0.27592447
0.85456765 0.0024524038 -0.18813172 -0.05331624 0.00017084855 0.29033053 0.07414941 0.4624701
-0.15042123 0.12895213 0.46029863 0.067630164 -0.038817056 0.091858044 -0.20040806 0.033307783
0.11046899 0.059727184 0.21304895 -0.5587462 0.025423883 0.31817052 0.24918772 -0.16889589
0.367819 0.19704515 -0.13903525 0.561518 -0.05609729 -0.34973577 -0.089122444 0.11980024
-0.0068906927 0.06787152 -0.19887553 0.24381836 0.417175 0.6124216 -0.06800608 0.10714492
0.26983178 -0.16894118 0.27306494 -0.059271988 -0.04044358 -0.49739996 0.3009377 -0.22773108
-0.06390567 0.04069135 0.15495421 0.21808848 0.07394084 0.014423058 -0.19781391 -0.5306636
-0.27800903 -0.27453208 0.08703643 0.09949722 0.012693994 -0.30174887 -0.17230392 -0.5049559
0.11873354 -0.33288327 -0.26922455 0.20012914 0.07585997 -0.31574497 -0.04267289 0.18862979
0.13131963 -0.16093683 -0.24146833 -0.16786021 0.25314635 -0.04024597 -0.05356946 -0.30094865
0.10228004 0.38178006 0.30230236 -0.053674266 0.24993409 -0.045770578 0.28237176 -0.027476255
-0.17534238 -0.323423 0.46790618 0.12970194 0.29886812 -0.23434368 0.15731992 0.2679346
-0.024520913 -0.07690451 0.1355891 0.5164414 -0.23930342 0.3382599 -0.25490975 0.14133435
0.052482773 0.20722042 0.3283525 0.24119587 -0.46697152 0.38022217 0.10713157 -0.3263165
-0.04893641 0.44471946 -0.070291795 0.3591633 -0.38652638 0.13732485 0.36156303 -0.05967429
-0.08405027 0.16517207 0.2575722 0.08146541 -0.22726026 -0.25091764 0.18059684 0.3130947
0.0068781436 0.05560067 0.31589806 0.16864334 -0.30987397 0.059375577 0.53950375 0.13651969
0.35004592 -0.06383817 -0.28514028 0.10265352 -0.25030026 -0.07726239 -0.3898962 0.14616583
0.33641988 0.31647432 0.13672467 0.08684039 0.008432951 -0.15193784 0.18504964 0.0074168546
0.3641099 -0.3934231 0.5566922 -0.06365169 -0.1231943 0.0076095765 0.2274396 0.29130545
-0.05838439 0.030355643 -0.5715097 -0.65776867 -0.055684246 -0.18760431 0.31637418 -0.20546205
0.09320445 -0.3618856 -0.2613515 0.38568148 0.1308789 0.03180212 -0.11826291 -0.11356876
0.08203942 0.24155545 0.23769203 0.20241307 -0.72646093 -0.50668716 -0.021737149 -0.020943081
-0.054829467 -0.09663843 0.41106963 -0.029251622 0.030495439 0.5688398 -0.6719606 0.07090252
0.26178476 0.076618224 -0.19242524 0.018222101 -0.0065127863 -0.1258188 -0.2905764 0.02374265
-0.14405096 -0.07433971 -0.21172659 -0.22594747 -0.8066896 -0.15801662 0.09272363 -0.76504415
0.7755912 -0.15653057 0.028805634 0.05718672 -0.25452784 0.089359626 0.2334483 0.22708818
-0.11870959 -0.1390076 -0.2124238 -0.13840705 -0.05909925 0.38071525 0.10931887 0.36184776
0.36301783 -0.3186019 1.0701429 0.115397945 -0.09321571 0.094114795 0.2442418 -0.2331511
00000000: 1b71 cd3d d8f4 17be ad8f df3d 38a8 d2bc
00000010: 665f 7fbe b498 9d3e 9198 7b3f c9f1 83bf
00000020: e2de 23be 2acd 713c ba41 58be fb0c 013d
00000030: 164b a3bf 17be ce3a c89f ee3d d643 bdbd
00000040: e885 9f3f 5c29 97bd 63fb 893e 26c8 47be
00000050: 593c 863e 72bf b3be ccaa 1b3e f945 8d3e
00000060: f2c4 5a3f 82b8 203b 9aa5 40be 2162 5abd
00000070: cf25 3339 34a6 943e a5db 973d e2c8 ec3e
00000080: 0608 1abe 070c 043e 43ac eb3e af81 8a3d
00000090: a2fe 1ebd 1220 bc3d c537 4dbe be6d 083d
000000a0: 913d e23d 7ea4 743d 8129 5a3e fe09 0fbf
000000b0: bf45 d03c 3fe7 a23e 112b 7f3e 0bf3 2cbe
000000c0: c652 bc3e 34c6 493e 425f 0ebe a5bf 0f3f
000000d0: 46c6 65bd 9110 b3be d485 b6bd d459 f53d
000000e0: 52cb e1bb 3900 8b3d 07a6 4bbe 85ab 793e
000000f0: f697 d53e a9c7 1c3f c646 8bbd cc6e db3d
00000100: 6427 8a3e ebfe 2cbe 2bcf 8b3e 2fc7 72bd
00000110: 2ba8 25bd 35ab febe 8214 9a3e 5632 69be
00000120: fae0 82bd f9ab 263d 51ac 1e3e 9652 5f3e
00000130: 4c6e 973d b14e 6c3c bb8f 4abe 92d9 07bf
00000140: 3357 8ebe 788f 8cbe 2840 b23d 33c5 cb3d
00000150: 78fa 4f3c d47e 9abe 7070 30be ca44 01bf
00000160: 922a f33d ad6f aabe cdd7 89be a7ee 4c3e
00000170: 795c 9b3d 53a9 a1be c5c9 2ebd 2b28 413e
00000180: a778 063e a0cc 24be 7943 77be 8ce3 2bbe
00000190: 669c 813e f5d8 24bd a66b 5bbd f115 9abe
000001a0: 3378 d13d ad78 c33e 60c7 9a3e 8cd9 5bbd
000001b0: b9ee 7f3e ee79 3bbd 0893 903e e215 e1bc
000001c0: f48c 33be b397 a5be 6691 ef3e 96d0 043e
000001d0: 3e05 993e caf7 6fbe 7918 213e b92e 893e
000001e0: 15e0 c8bc 1d80 9dbd ded7 0a3e 8135 043f
000001f0: f50b 75be 6730 ad3e 8883 82be f4b9 103e
00000200: 2df8 563d 9731 543e d21d a83e 0dfc 763e
00000210: e416 efbe 7bac c23e cc67 db3d f512 a7be
00000220: 8c71 48bd 45b2 e33e 25f5 8fbd 41e4 b73e
00000230: c9e6 c5be e39e 0c3e ca1e b93e 076d 74bd
00000240: 8c22 acbd de22 293e 81e0 833e 56d7 a63d
00000250: eab6 68be 4778 80be 61ee 383e f34d a03e
00000260: 0d62 e13b 87bd 633d 64bd a13e d7b0 2c3e
00000270: cda7 9ebe ce33 733d eb1c 0a3f d1cb 0b3e
00000280: 3839 b33e 96bd 82bd e8fd 91be 023c d23d
00000290: 5b27 80be be3b 9ebd 7aa0 c7be 7fac 153e
000002a0: 3a3f ac3e ec08 a23e 8d01 0c3e 60d9 b13d
000002b0: 5c2a 0a3c 9895 1bbe a77d 3d3e 1609 f33b
000002c0: 9d6c ba3e c16e c9be 6183 0e3f d15b 82bd
000002d0: 4b4d fcbd c159 f93b ede5 683e fd25 953e
000002e0: 7824 6fbd 66ac f83c 764e 12bf 8763 28bf
000002f0: 2a15 64bd 581b 40be ccfb a13e a564 52be
00000300: fae1 be3d 1249 b9be ddcf 85be 0b78 c53e
00000310: 1e05 063e f142 023d d333 f2bd bd96 e8bd
00000320: 4904 a83d 505a 773e 8a65 733e 5f45 4f3e
00000330: 58f9 39bf 40b6 01bf 1b12 b2bc d390 abbc
00000340: dd94 60bd 5fea c5bd b877 d23e 19a1 efbc
00000350: 92d1 f93c 7c9f 113f 9c05 2cbf 5735 913d
00000360: a708 863e 04ea 9c3d 1f0b 45be 8446 953c
00000370: 3669 d5bb a5d6 00be 6ec6 94be f27f c23c
00000380: 1882 13be 6b3f 98bd dbce 58be c65e 67be
00000390: 3683 4ebf 1ccf 21be e3e5 bd3d efd9 43bf
000003a0: 258d 463f 8d49 20be cbf9 eb3c 9f3c 6a3d
000003b0: 7951 82be 2e02 b73d 120d 6f3e ce89 683e
000003c0: 031e f3bd 0258 0ebe a085 59be 94ba 0dbe
000003d0: 0e12 72bd 1ced c23e 92e2 df3d 1c44 b93e
000003e0: 79dd b93e ca1f a3be 71fa 883f c255 ec3d
000003f0: e1e7 bebd 42bf c03d 861a 7a3e 29bf 6ebe

net.0.bias f4 [64]
0.17884226 0.032083552 -0.097060844 0.011448333 0.016233038 -0.30481333 0.51294166 0.061752763
0.082635276 0.051712144 -0.0032041129 0.10138897 0.4789924 -0.3035079 0.34022334 0.19540872
0.056780178 0.2549349 0.7630574 0.10874058 -0.45246917 -0.10706823 -0.22719069 -0.32059768
0.31483033 0.13989486 0.46721622 0.498524 -0.3487765 0.2020222 0.4438181 0.36452782
-0.025970457 -0.25860626 0.5979758 0.18821654 0.03542987 0.35549465 -0.018086696 0.005035066
0.4071257 0.42884234 -0.028453207 0.4671749 0.33321124 -0.14463884 0.31467488 0.43592894
-0.37724754 0.2771494 0.60137844 -0.042138904 0.57884645 0.3489009 0.20864072 -0.045856155
-0.17633758 0.49519113 0.546774 0.22006756 -0.20703024 0.30829832 0.41002202 -0.036164895
00000000: 6d22 373e 0b6a 033d d6c7 c6bd ca91 3b3c
00000010: 26fb 843c 7e10 9cbe 2550 033f 77f0 7c3d
00000020: af3c a93d 1dd0 533d 18fc 51bb 05a5 cf3d
00000030: 7e3e f53e 6365 9bbe c131 ae3e 3919 483e
00000040: 5592 683d d486 823e bb57 433f 62b3 de3d
00000050: 0aaa e7be 9746 dbbd ada4 68be 6125 a4be
00000060: 7131 a13e 9940 0f3e f736 ef3e 8a3e ff3e
00000070: d592 b2be e8de 4e3e 203c e33e 64a3 ba3e
00000080: ffbf d4bc 0a68 84be f114 193f d6bb 403e
00000090: e91e 113d 6503 b63e 8d2a 94bc 32fd a43b
000000a0: c872 d03e 3991 db3e b316 e9bc 8c31 ef3e
000000b0: aa9a aa3e 341c 14be 111d a13e 1432 df3e
000000c0: 9726 c1be 87e6 8d3e f0f3 193f d899 2cbd
000000d0: 482f 143f 24a3 b23e eaa5 553e aad3 3bbd
000000e0: d791 34be b189 fd3e 62f9 0b3f 6459 613e
000000f0: bcff 53be 47d9 9d3e 68ee d13e a421 14bd

net.2.weight f4 [64, 64]
0.26131338 -0.23900984 -0.0079334825 -0.059577104 -0.034288313 0.19604528 0.20177042 3.625278e-05
0.11946581 -0.10697204 -0.02678605 0.10451589 -0.020747548 0.17758825 -0.09881908 -0.10153915
-0.061647553 -0.10485736 0.13394322 -0.062561154 -0.02515815 0.04924416 -0.0082093505 0.1672292
-0.05072236 -0.28722394 0.08924643 -0.056769285 -0.032747194 -0.06633701 0.029249502 0.121748544
-0.011393964 -0.14737242 0.29287726 0.13602702 -0.15347447 -0.0073221703 0.031602673 -0.04958447
-0.031231461 -0.0115194 0.12743893 0.07753348 -0.02292385 0.02001543 0.035975587 0.11800695
-0.24389572 -0.18943398 0.19235386 0.3218459 0.11822108 -0.09687411 0.19799682 0.11626026
-0.09318099 -0.16333434 -0.09462932 0.024726715 0.22167234 -0.21462521 -0.28314075 0.046903376
0.104835056 -0.27223533 0.05009616 0.15399691 -0.13334303 0.030785408 0.13117945 0.033842042
-0.044595134 -0.040466577 -0.09382583 0.13863298 0.050659977 0.11056773 0.011976827 0.116961166
0.105148666 -0.01874793 0.13135237 -0.058508575 -0.1910594 0.12785259 -0.10096293 -0.084756255
-0.051517736 -0.14744265 -0.041702237 0.22725457 0.05864614 0.002857655 0.262323 0.033060253
-0.061115105 -0.13787429 0.16037612 0.029725261 -0.10253527 0.037052155 0.10952828 -0.10590026
0.077118315 0.06121538 -0.023110226 0.08116235 -0.23165146 -0.018874455 0.1136469 0.08858646
-0.10822819 -0.18022239 0.16368271 0.20024182 0.09668379 -0.080580875 0.18502408 0.04902134
-0.13289744 0.07366028 0.08158373 0.061183132 -0.06417989 -0.06880955 -0.15181203 -0.10936053
0.05809879 -0.30925247 -0.08076715 -0.10158828 -0.060330518 -0.020039361 0.1208403 0.13599858
-0.039111044 0.17188379 0.0715866 0.001231976 -0.007634559 0.07807152 0.0026123093 -0.036918323
0.12347194 0.026960805 0.17673497 0.18148988 -0.09866614 0.06401085 -0.01905272 -0.11428382
0.13051188 0.0061179646 -0.06571034 0.18430741 0.10769814 0.040825907 0.16455022 0.02886762
0.048430048 -0.07241424 0.019287597 0.089674234 -0.046681665 0.2614709 0.10638835 -0.05762907
0.05178433 -0.027538912 -0.064454265 0.059151746 -0.012064491 -0.30408767 -0.106986195 0.1676611
-0.0754257 0.031045077 -0.006538744 -0.012624914 0.17544822 0.034755446 0.17716956 0.014718142
-0.05687535 0.02891916 0.10333704 0.11792149 -0.036165904 0.115418576 0.022897644 -0.068273984
0.53918666 1.1352605 0.4005325 -0.044998623 0.49201363 0.27630818 -0.3368416 0.010814101
0.25965223 -0.26987913 0.15320514 -0.056930207 0.13420242 0.44630635 0.07521197 -0.025856039
0.16348863 -0.27536833 0.0006664911 -0.1875437 0.5572272 0.027446982 0.32725483 0.6826006
-0.12517747 0.6114965 0.048738442 -0.16877565 0.04919895 -0.17553997 -0.08204153 0.011971093
0.4771546 0.103499904 -0.03525869 0.20502384 -0.041147225 -0.008776838 0.012641263 -0.1800575
-0.23068105 0.076555364 0.027178902 0.085135564 0.4416201 0.5863201 0.25260723 -0.20831549
0.23378101 0.029561108 0.11714362 0.17530285 -0.034270782 -0.16093345 -0.2866178 -0.04193099
0.10550516 0.022105377 -0.005056871 -0.10349964 0.64516276 -0.12067508 -0.07651798 0.24747184
00000000: deca 853e ffbe 74be 70fb 01bc 1f07 74bd
00000010: e771 0cbd 18c0 483e e89c 4e3e 200e 1838
00000020: 7eaa f43d 2814 dbbd 6b6e dbbc 6d0c d63d
00000030: c3f6 a9bc b2d9 353e a861 cabd c2f3 cfbd
00000040: 2582 7cbd 75bf d6bd 6928 093e 1020 80bd
00000050: 7718 cebc 3fb4 493d 8380 06bc 223e 2b3e
00000060: 40c2 4fbd 040f 93be d5c6 b63d e986 68bd
00000070: ec21 06bd b3db 87bd a79c ef3c 4d57 f93d
00000080: c0ad 3abc cce8 16be 02f4 953e ab4a 0b3e
00000090: 6928 1dbe d1ee efbb ce71 013d 1619 4bbd
000000a0: 1fd9 ffbc debb 3cbc 5a7f 023e e0c9 9e3d
000000b0: ccca bbbc 66f7 a33c 235b 133d a1ad f13d
000000c0: cdbf 79be fbfa 41be 69f8 443e fcc8 a43e
000000d0: e51d f23d ef65 c6bd aebf 4a3e dc19 ee3d
000000e0: add5 bebd 1e41 27be 04cd c1bd ae8f ca3c
000000f0: 13fe 623e b6c6 5bbe d3f7 90be c11d 403d
00000100: c3b3 d63d 6e62 8bbe a231 4d3d 5eb1 1d3e
00000110: 138b 08be ae31 fc3c e853 063e f49d 0a3d
00000120: 63a9 36bd 48c0 25bd c227 c0bd cef5 0d3e
00000130: d680 4f3d 5671 e23d 743a 443c 5689 ef3d
00000140: 2f58 d73d 4295 99bc 3c81 063e b0a6 6fbd
00000150: 13a5 43be caeb 023e a7c5 cebd b094 adbd
00000160: 4304 53bd 35fb 16be f7cf 2abd 6cb5 683e
00000170: ef36 703d 7f47 3b3b 334f 863e 306a 073d
00000180: d553 7abd eb2e 0dbe a339 243e 6482 f33c
00000190: 03fe d1bd 00c4 173d 5d50 e03d 3ce2 d8bd
000001a0: 35f0 9d3d fabc 7a3d a851 bdbc 7238 a63d
000001b0: 0a36 6dbe 9a9e 9abc b5bf e83d d16c b53d
000001c0: bea6 ddbd 388c 38be 719c 273e 310c 4d3e
000001d0: 2702 c63d 9607 a5bd f476 3d3e 9aca 483d
000001e0: 4416 08be 33db 963d 5f15 a73d 2a9b 7a3d
000001f0: bf70 83bd 05ec 8cbd 9d74 1bbe 6af8 dfbd
00000200: fff8 6d3d 5756 9ebe 3f69 a5bd 840d d0bd
00000210: 221d 77bd 9629 a4bc 1f7b f73d 3643 0b3e
00000220: e732 20bd 4e02 303e ff9b 923d 417a a13a
00000230: 532b fabb f6e3 9f3d 4733 2b3b ab37 17bd
00000240: dbde fc3d e8dc dc3c 03fa 343e 7cd8 393e
00000250: 7911 cabd 1f18 833d 7314 9cbc a30d eabd
00000260: e8a4 053e 3579 c83b 2593 86bd 15bb 3c3e
00000270: d890 dc3d 1139 273d da7f 283e c97b ec3c
00000280: 965e 463d eb4d 94bd 0601 9e3c 20a7 b73d
00000290: 4635 3fbd 84df 853e 23e2 d93d 760c 6cbd
000002a0: ce1b 543d 4999 e1bc 9900 84bd 1a49 723d
000002b0: 25aa 45bc 61b1 9bbe 941b dbbd 5aaf 2b3e
000002c0: ca78 9abd 3f52 fe3c f642 d6bb bad8 4ebc
000002d0: b3a8 333e ba5b 0e3d f06b 353e 5d24 713c
000002e0: 21f6 68bd e0e7 ec3c 5fa2 d33d d280 f13d
000002f0: b322 14bd 9360 ec3d d793 bb3c 3bd3 8bbd
00000300: 2308 0a3f 3750 913f 9912 cd3e 7a50 38bd
00000310: 36e9 fb3e 4478 8d3e 8176 acbe a12d 313c
00000320: 23f1 843e 992d 8abe cfe1 1c3e a62f 69bd
00000330: 5c6c 093e 4482 e43e bc08 9a3d 0bd0 d3bc
00000340: 9069 273e 14fd 8cbe 76b7 2e3a 750b 40be
00000350: 71a6 0e3f 7ed8 e03c f28d a73e eabe 2e3f
00000360: 862e 00be 098b 1c3f f6a1 473d 86d3 2cbe
00000370: d784 493d c0c0 33be 6405 a8bd 6722 443c
00000380: 9c4d f43e c2f7 d33d 6b6b 10bd c5f1 513e
00000390: fe89 28bd bacc 0fbc 4d1d 4f3c fe60 38be
000003a0: a737 6cbe 0fc9 9c3d 4aa6 de3c 8e5b ae3d
000003b0: 081c e23e 1319 163f bc55 813e a850 55be
000003c0: 4a64 6f3e 232a f23c ffe8 ef3d 9782 333e
000003d0: 855f 0cbd bdcb 24be 91bf 92be d4bf 2bbd
000003e0: 1713 d83d 5616 b53c 1cb4 a5bb 9ff7 d3bd
000003f0: 6329 253f 7f24 f7bd 75b5 9cbd 4269 7d3e

net.2.bias f4 [64]
-0.099132046 0.14619559 0.054042306 -0.42785525 0.07261146 -0.2092321 -0.07845111 0.2276395
0.06181582 -0.24130684 -0.12889297 0.05166596 -0.25394234 -0.068958536 0.18743911 0.11310695
-0.050829615 0.2907888 0.11767268 0.047557622 -0.025550108 -0.11488556 0.051248625 -0.033039372
0.0238707 -0.070025794 -0.14837518 0.027218457 0.19136326 0.12118503 -0.048548996 0.16582711
0.10985757 -0.006645759 0.18999197 -0.00031190246 -0.054382615 -0.12434243 0.16011846 0.029150683
-0.094063744 0.0060109575 0.092200555 0.244218 0.26674154 0.30070692 -0.0034801082 0.091962986
0.10239343 0.22401144 0.0829589 -0.1546795 -0.40927473 -0.07349215 -0.012616759 -0.17888005
0.16540857 0.04839587 0.3661984 0.27325103 0.08008294 0.028853394 0.0690878 -0.16192342
00000000: be05 cbbd 4cb4 153e 775b 5d3d d80f dbbe
00000010: 51b5 943d f140 56be faaa a0bd 541a 693e
00000020: 9632 7d3d 2419 77be 85fc 03be b09f 533d
00000030: bb04 82be 223a 8dbd 0af0 3f3e 9ea4 e73d
00000040: b732 50bd 45e2 943e 60fe f03d c8cb 423d
00000050: 764e d1bc 1f49 ebbd 14ea 513d 4b54 07bd
00000060: 7c8c c33c af69 8fbd aaef 17be 3ef9 de3c
00000070: bbf4 433e db2f f83d 50db 46bd 95ce 293e
00000080: 01fd e03d abc4 d9bb 418d 423e d786 a3b9
00000090: 4ec0 5ebd 3ea7 febd 18f6 233e 6acd ee3c
000000a0: 7ea4 c0bd 91f7 c43b a5d3 bc3d 4914 7a3e
000000b0: 5992 883e 42f6 993e 8712 64bb 1757 bc3d
000000c0: a6b3 d13d 4163 653e 5be6 a93d 4e64 1ebe
000000d0: 758c d1be 0d83 96bd 86b6 4ebc 552c 37be
000000e0: dd60 293e bf3a 463d 5b7e bb3e 8fe7 8b3e
000000f0: 8602 a43d f45d ec3c e87d 8d3d 41cf 25be

net.4.weight f4 [2, 64]
0.4063675 0.16973773 0.030454725 -0.26371473 0.31029248 -0.06432584 -0.15464298 0.15713981
0.044139735 -0.09364782 -0.2052769 0.063673615 -0.19995168 -0.14204685 0.20167045 0.030136166
0.012190089 0.20631328 0.1718332 0.19820078 0.031467248 -0.18840842 -0.118101455 0.013592194
-0.08369288 -0.17538407 0.0903603 -0.07420326 0.18997903 0.1926416 -0.030921452 0.20207065
0.00068537536 -0.09431072 0.15167435 -0.1152432 -0.023193443 -0.1640716 0.14993128 0.12199631
0.06492785 -0.42484877 -0.034592137 0.056889717 -0.12669174 0.12392015 -0.036522258 -0.023819892
0.32500905 -0.45317408 0.10112898 0.040580098 -0.23438504 0.082877524 0.015461624 -0.022328952
-0.16729207 -0.41350365 0.1456234 0.13571234 0.13906045 -0.040633164 0.023688797 -0.35158423
-0.29816195 0.013000748 0.04336176 -0.3610046 -0.7037581 -0.32019386 0.047702197 0.06318623
-0.18623117 -0.47173253 -0.12882383 -0.18937083 -0.4763582 -0.00778503 0.15795636 0.13390554
-0.1312293 0.21061848 0.055084772 -0.13854481 -0.07910946 0.019256635 -0.03143355 -0.0033903725
-0.089674495 -0.17598376 -0.3718658 -0.020784602 0.07136249 0.042255208 0.05236114 0.1928682
0.14378619 0.12429155 0.16832826 0.009948015 -0.21134415 -0.031805586 -0.018756034 0.011713335
-0.07664659 -0.32398728 0.14891887 0.07493121 0.2942243 0.22404742 0.06603643 0.15764743
-0.0024446838 0.24341953 -0.10137106 -0.11507339 -0.48083204 0.031854913 -0.04533532 -0.030565744
0.29060522 0.17373085 0.13060044 0.16323267 -0.09777323 -0.0638727 -0.089806564 -0.15348212
00000000: 670f d03e bacf 2d3e 307c f93c 9e05 87be
00000010: a8de 9e3e 44bd 83bd bb5a 1ebe 42e9 203e
00000020: decb 343d 6eca bfbd 1c34 52be 5067 823d
00000030: 22c0 4cbe bb74 11be b382 4e3e 1fe0 f63c
00000040: f0b8 473c ca43 533e 0bf5 2f3e 25f5 4a3e
00000050: cde3 003d 23ee 40be 2ddf f1bd cbb1 5e3c
00000060: 2c67 abbd e297 33be d20e b93d e1f7 97bd
00000070: dd89 423e d743 453e fc4e fdbc 9ceb 4e3e
00000080: c3aa 333a fb25 c1bd 8550 1b3e a004 ecbd
00000090: 2d00 bebc 6302 28be 9687 193e 34d9 f93d
000000a0: e5f8 843d c785 d9be 7cb0 0dbd 3105 693d
000000b0: 7bbb 01be d9c9 fd3d 5d98 15bd ef21 c3bc
000000c0: 9667 a63e 6f06 e8be b61c cf3d 5137 263d
000000d0: a202 70be b1bb a93d c052 7d3c 35eb b6bc
000000e0: 9d4e 2bbe c0b6 d3be 4d1e 153e 2df8 0a3e
000000f0: dd65 0e3e f66e 26bd 020f c23c d902 b4be
00000100: afa8 98be 1701 553c 1a9c 313d 98d5 b8be
00000110: 7e29 34bf 73f0 a3be 6163 433d c867 813d
00000120: 62b3 3ebe ed86 f1be 65ea 03be 6dea 41be
00000130: 39e5 f3be 9119 ffbb 50bf 213e 891e 093e
00000140: f960 06be 5fac 573e 92a0 613d b1de 0dbe
00000150: 2404 a2bd 17c0 9d3c 77c0 00bd 0331 5ebb
00000160: 43a7 b7bd 1635 34be 3265 bebe 7844 aabc
00000170: 7f26 923d cc13 2d3d a278 563d 3e7f 453e
00000180: b03c 133e 918c fe3d 3e5e 2c3e 00fd 223c
00000190: 9a6a 58be 9346 02bd 41a6 99bc 4ae9 3f3c
000001a0: e3f8 9cbd a9e1 a5be 307e 183e 8975 993d
000001b0: 91a4 963e b06c 653e 1c3e 873d 546e 213e
000001c0: fd36 20bb f842 793e a19b cfbd 99ab ebbd
000001d0: 9e2f f6be 4c7a 023d 87b1 39bd 0365 fabc
000001e0: 35ca 943e 80e6 313e 1fbc 053e 7726 273e
000001f0: 553d c8bd b1cf 82bd 81ec b7bd 6b2a 1dbe

net.4.bias f4 [2]
0.062054835 0.12387396
00000000: 362d 7e3d a1b1 fd3d
